{"format": "graph-model", "generatedBy": "2.19.0", "convertedBy": "TensorFlow.js Converter v4.22.0", "signature": {"inputs": {"input_layer": {"name": "input_layer:0", "dtype": "DT_FLOAT", "tensorShape": {"dim": [{"size": "-1"}, {"size": "224"}, {"size": "224"}, {"size": "3"}]}}}, "outputs": {"output_0": {"name": "Identity:0", "dtype": "DT_FLOAT", "tensorShape": {"dim": [{"size": "-1"}, {"size": "86"}]}}}}, "modelTopology": {"node": [{"name": "StatefulPartitionedCall/clean_plant_model_1/efficientnetv2-b0_1/block6h_expand_conv_1/convolution/Cast", "op": "Const", "attr": {"value": {"tensor": {"dtype": "DT_HALF", "tensorShape": {"dim": [{"size": "1"}, {"size": "1"}, {"size": "192"}, {"size": "1152"}]}}}, "dtype": {"type": "DT_HALF"}}}, {"name": "StatefulPartitionedCall/clean_plant_model_1/efficientnetv2-b0_1/block6h_expand_bn_1/batchnorm/mul", "op": "Const", "attr": {"value": {"tensor": {"dtype": "DT_FLOAT", "tensorShape": {"dim": [{"size": "1"}, {"size": "1"}, {"size": "1"}, {"size": "1152"}]}}}, "dtype": {"type": "DT_FLOAT"}}}, {"name": "StatefulPartitionedCall/clean_plant_model_1/efficientnetv2-b0_1/block6h_expand_bn_1/batchnorm/sub", "op": "Const", "attr": {"value": {"tensor": {"dtype": "DT_FLOAT", "tensorShape": {"dim": [{"size": "1"}, {"size": "1"}, {"size": "1"}, {"size": "1152"}]}}}, "dtype": {"type": "DT_FLOAT"}}}, {"name": "StatefulPartitionedCall/clean_plant_model_1/efficientnetv2-b0_1/block6h_dwconv2_1/depthwise/Cast", "op": "Const", "attr": {"value": {"tensor": {"dtype": "DT_HALF", "tensorShape": {"dim": [{"size": "3"}, {"size": "3"}, {"size": "1152"}, {"size": "1"}]}}}, "dtype": {"type": "DT_HALF"}}}, {"name": "StatefulPartitionedCall/clean_plant_model_1/efficientnetv2-b0_1/block6h_bn_1/batchnorm/mul", "op": "Const", "attr": {"value": {"tensor": {"dtype": "DT_FLOAT", "tensorShape": {"dim": [{"size": "1"}, {"size": "1"}, {"size": "1"}, {"size": "1152"}]}}}, "dtype": {"type": "DT_FLOAT"}}}, {"name": "StatefulPartitionedCall/clean_plant_model_1/efficientnetv2-b0_1/block6h_bn_1/batchnorm/sub", "op": "Const", "attr": {"value": {"tensor": {"dtype": "DT_FLOAT", "tensorShape": {"dim": [{"size": "1"}, {"size": "1"}, {"size": "1"}, {"size": "1152"}]}}}, "dtype": {"type": "DT_FLOAT"}}}, {"name": "StatefulPartitionedCall/clean_plant_model_1/efficientnetv2-b0_1/block6h_se_squeeze_1/Mean/reduction_indices", "op": "Const", "attr": {"value": {"tensor": {"dtype": "DT_INT32", "tensorShape": {"dim": [{"size": "2"}]}}}, "dtype": {"type": "DT_INT32"}}}, {"name": "StatefulPartitionedCall/clean_plant_model_1/efficientnetv2-b0_1/block6h_se_reshape_1/strided_slice/stack", "op": "Const", "attr": {"value": {"tensor": {"dtype": "DT_INT32", "tensorShape": {"dim": [{"size": "1"}]}}}, "dtype": {"type": "DT_INT32"}}}, {"name": "StatefulPartitionedCall/clean_plant_model_1/efficientnetv2-b0_1/block6h_se_reshape_1/strided_slice/stack_1", "op": "Const", "attr": {"value": {"tensor": {"dtype": "DT_INT32", "tensorShape": {"dim": [{"size": "1"}]}}}, "dtype": {"type": "DT_INT32"}}}, {"name": "StatefulPartitionedCall/clean_plant_model_1/efficientnetv2-b0_1/block6h_se_reshape_1/strided_slice/stack_2", "op": "Const", "attr": {"value": {"tensor": {"dtype": "DT_INT32", "tensorShape": {"dim": [{"size": "1"}]}}}, "dtype": {"type": "DT_INT32"}}}, {"name": "StatefulPartitionedCall/clean_plant_model_1/efficientnetv2-b0_1/block6h_se_reshape_1/Reshape/shape/1", "op": "Const", "attr": {"value": {"tensor": {"dtype": "DT_INT32", "tensorShape": {}}}, "dtype": {"type": "DT_INT32"}}}, {"name": "StatefulPartitionedCall/clean_plant_model_1/efficientnetv2-b0_1/block6h_se_reshape_1/Reshape/shape/2", "op": "Const", "attr": {"value": {"tensor": {"dtype": "DT_INT32", "tensorShape": {}}}, "dtype": {"type": "DT_INT32"}}}, {"name": "StatefulPartitionedCall/clean_plant_model_1/efficientnetv2-b0_1/block6h_se_reshape_1/Reshape/shape/3", "op": "Const", "attr": {"value": {"tensor": {"dtype": "DT_INT32", "tensorShape": {}}}, "dtype": {"type": "DT_INT32"}}}, {"name": "StatefulPartitionedCall/clean_plant_model_1/efficientnetv2-b0_1/block6h_se_reduce_1/convolution/Cast", "op": "Const", "attr": {"value": {"tensor": {"dtype": "DT_HALF", "tensorShape": {"dim": [{"size": "1"}, {"size": "1"}, {"size": "1152"}, {"size": "48"}]}}}, "dtype": {"type": "DT_HALF"}}}, {"name": "StatefulPartitionedCall/clean_plant_model_1/efficientnetv2-b0_1/block6h_se_reduce_1/Squeeze", "op": "Const", "attr": {"value": {"tensor": {"dtype": "DT_HALF", "tensorShape": {"dim": [{"size": "48"}]}}}, "dtype": {"type": "DT_HALF"}}}, {"name": "StatefulPartitionedCall/clean_plant_model_1/efficientnetv2-b0_1/block6h_se_expand_1/convolution/Cast", "op": "Const", "attr": {"value": {"tensor": {"dtype": "DT_HALF", "tensorShape": {"dim": [{"size": "1"}, {"size": "1"}, {"size": "48"}, {"size": "1152"}]}}}, "dtype": {"type": "DT_HALF"}}}, {"name": "StatefulPartitionedCall/clean_plant_model_1/efficientnetv2-b0_1/block6h_se_expand_1/Squeeze", "op": "Const", "attr": {"value": {"tensor": {"dtype": "DT_HALF", "tensorShape": {"dim": [{"size": "1152"}]}}}, "dtype": {"type": "DT_HALF"}}}, {"name": "StatefulPartitionedCall/clean_plant_model_1/efficientnetv2-b0_1/block6h_project_conv_1/convolution/Cast", "op": "Const", "attr": {"value": {"tensor": {"dtype": "DT_HALF", "tensorShape": {"dim": [{"size": "1"}, {"size": "1"}, {"size": "1152"}, {"size": "192"}]}}}, "dtype": {"type": "DT_HALF"}}}, {"name": "StatefulPartitionedCall/clean_plant_model_1/efficientnetv2-b0_1/block6h_project_bn_1/batchnorm/mul", "op": "Const", "attr": {"value": {"tensor": {"dtype": "DT_FLOAT", "tensorShape": {"dim": [{"size": "1"}, {"size": "1"}, {"size": "1"}, {"size": "192"}]}}}, "dtype": {"type": "DT_FLOAT"}}}, {"name": "StatefulPartitionedCall/clean_plant_model_1/efficientnetv2-b0_1/block6h_project_bn_1/batchnorm/sub", "op": "Const", "attr": {"value": {"tensor": {"dtype": "DT_FLOAT", "tensorShape": {"dim": [{"size": "1"}, {"size": "1"}, {"size": "1"}, {"size": "192"}]}}}, "dtype": {"type": "DT_FLOAT"}}}, {"name": "StatefulPartitionedCall/clean_plant_model_1/efficientnetv2-b0_1/block6g_expand_conv_1/convolution/Cast", "op": "Const", "attr": {"value": {"tensor": {"dtype": "DT_HALF", "tensorShape": {"dim": [{"size": "1"}, {"size": "1"}, {"size": "192"}, {"size": "1152"}]}}}, "dtype": {"type": "DT_HALF"}}}, {"name": "StatefulPartitionedCall/clean_plant_model_1/efficientnetv2-b0_1/block6g_expand_bn_1/batchnorm/mul", "op": "Const", "attr": {"value": {"tensor": {"dtype": "DT_FLOAT", "tensorShape": {"dim": [{"size": "1"}, {"size": "1"}, {"size": "1"}, {"size": "1152"}]}}}, "dtype": {"type": "DT_FLOAT"}}}, {"name": "StatefulPartitionedCall/clean_plant_model_1/efficientnetv2-b0_1/block6g_expand_bn_1/batchnorm/sub", "op": "Const", "attr": {"value": {"tensor": {"dtype": "DT_FLOAT", "tensorShape": {"dim": [{"size": "1"}, {"size": "1"}, {"size": "1"}, {"size": "1152"}]}}}, "dtype": {"type": "DT_FLOAT"}}}, {"name": "StatefulPartitionedCall/clean_plant_model_1/efficientnetv2-b0_1/block6g_dwconv2_1/depthwise/Cast", "op": "Const", "attr": {"value": {"tensor": {"dtype": "DT_HALF", "tensorShape": {"dim": [{"size": "3"}, {"size": "3"}, {"size": "1152"}, {"size": "1"}]}}}, "dtype": {"type": "DT_HALF"}}}, {"name": "StatefulPartitionedCall/clean_plant_model_1/efficientnetv2-b0_1/block6g_bn_1/batchnorm/mul", "op": "Const", "attr": {"value": {"tensor": {"dtype": "DT_FLOAT", "tensorShape": {"dim": [{"size": "1"}, {"size": "1"}, {"size": "1"}, {"size": "1152"}]}}}, "dtype": {"type": "DT_FLOAT"}}}, {"name": "StatefulPartitionedCall/clean_plant_model_1/efficientnetv2-b0_1/block6g_bn_1/batchnorm/sub", "op": "Const", "attr": {"value": {"tensor": {"dtype": "DT_FLOAT", "tensorShape": {"dim": [{"size": "1"}, {"size": "1"}, {"size": "1"}, {"size": "1152"}]}}}, "dtype": {"type": "DT_FLOAT"}}}, {"name": "StatefulPartitionedCall/clean_plant_model_1/efficientnetv2-b0_1/block6g_se_squeeze_1/Mean/reduction_indices", "op": "Const", "attr": {"value": {"tensor": {"dtype": "DT_INT32", "tensorShape": {"dim": [{"size": "2"}]}}}, "dtype": {"type": "DT_INT32"}}}, {"name": "StatefulPartitionedCall/clean_plant_model_1/efficientnetv2-b0_1/block6g_se_reshape_1/strided_slice/stack", "op": "Const", "attr": {"value": {"tensor": {"dtype": "DT_INT32", "tensorShape": {"dim": [{"size": "1"}]}}}, "dtype": {"type": "DT_INT32"}}}, {"name": "StatefulPartitionedCall/clean_plant_model_1/efficientnetv2-b0_1/block6g_se_reshape_1/strided_slice/stack_1", "op": "Const", "attr": {"value": {"tensor": {"dtype": "DT_INT32", "tensorShape": {"dim": [{"size": "1"}]}}}, "dtype": {"type": "DT_INT32"}}}, {"name": "StatefulPartitionedCall/clean_plant_model_1/efficientnetv2-b0_1/block6g_se_reshape_1/strided_slice/stack_2", "op": "Const", "attr": {"value": {"tensor": {"dtype": "DT_INT32", "tensorShape": {"dim": [{"size": "1"}]}}}, "dtype": {"type": "DT_INT32"}}}, {"name": "StatefulPartitionedCall/clean_plant_model_1/efficientnetv2-b0_1/block6g_se_reshape_1/Reshape/shape/1", "op": "Const", "attr": {"value": {"tensor": {"dtype": "DT_INT32", "tensorShape": {}}}, "dtype": {"type": "DT_INT32"}}}, {"name": "StatefulPartitionedCall/clean_plant_model_1/efficientnetv2-b0_1/block6g_se_reshape_1/Reshape/shape/2", "op": "Const", "attr": {"value": {"tensor": {"dtype": "DT_INT32", "tensorShape": {}}}, "dtype": {"type": "DT_INT32"}}}, {"name": "StatefulPartitionedCall/clean_plant_model_1/efficientnetv2-b0_1/block6g_se_reshape_1/Reshape/shape/3", "op": "Const", "attr": {"value": {"tensor": {"dtype": "DT_INT32", "tensorShape": {}}}, "dtype": {"type": "DT_INT32"}}}, {"name": "StatefulPartitionedCall/clean_plant_model_1/efficientnetv2-b0_1/block6g_se_reduce_1/convolution/Cast", "op": "Const", "attr": {"value": {"tensor": {"dtype": "DT_HALF", "tensorShape": {"dim": [{"size": "1"}, {"size": "1"}, {"size": "1152"}, {"size": "48"}]}}}, "dtype": {"type": "DT_HALF"}}}, {"name": "StatefulPartitionedCall/clean_plant_model_1/efficientnetv2-b0_1/block6g_se_reduce_1/Squeeze", "op": "Const", "attr": {"value": {"tensor": {"dtype": "DT_HALF", "tensorShape": {"dim": [{"size": "48"}]}}}, "dtype": {"type": "DT_HALF"}}}, {"name": "StatefulPartitionedCall/clean_plant_model_1/efficientnetv2-b0_1/block6g_se_expand_1/convolution/Cast", "op": "Const", "attr": {"value": {"tensor": {"dtype": "DT_HALF", "tensorShape": {"dim": [{"size": "1"}, {"size": "1"}, {"size": "48"}, {"size": "1152"}]}}}, "dtype": {"type": "DT_HALF"}}}, {"name": "StatefulPartitionedCall/clean_plant_model_1/efficientnetv2-b0_1/block6g_se_expand_1/Squeeze", "op": "Const", "attr": {"value": {"tensor": {"dtype": "DT_HALF", "tensorShape": {"dim": [{"size": "1152"}]}}}, "dtype": {"type": "DT_HALF"}}}, {"name": "StatefulPartitionedCall/clean_plant_model_1/efficientnetv2-b0_1/block6g_project_conv_1/convolution/Cast", "op": "Const", "attr": {"value": {"tensor": {"dtype": "DT_HALF", "tensorShape": {"dim": [{"size": "1"}, {"size": "1"}, {"size": "1152"}, {"size": "192"}]}}}, "dtype": {"type": "DT_HALF"}}}, {"name": "StatefulPartitionedCall/clean_plant_model_1/efficientnetv2-b0_1/block6g_project_bn_1/batchnorm/mul", "op": "Const", "attr": {"value": {"tensor": {"dtype": "DT_FLOAT", "tensorShape": {"dim": [{"size": "1"}, {"size": "1"}, {"size": "1"}, {"size": "192"}]}}}, "dtype": {"type": "DT_FLOAT"}}}, {"name": "StatefulPartitionedCall/clean_plant_model_1/efficientnetv2-b0_1/block6g_project_bn_1/batchnorm/sub", "op": "Const", "attr": {"value": {"tensor": {"dtype": "DT_FLOAT", "tensorShape": {"dim": [{"size": "1"}, {"size": "1"}, {"size": "1"}, {"size": "192"}]}}}, "dtype": {"type": "DT_FLOAT"}}}, {"name": "StatefulPartitionedCall/clean_plant_model_1/efficientnetv2-b0_1/block6f_expand_conv_1/convolution/Cast", "op": "Const", "attr": {"value": {"tensor": {"dtype": "DT_HALF", "tensorShape": {"dim": [{"size": "1"}, {"size": "1"}, {"size": "192"}, {"size": "1152"}]}}}, "dtype": {"type": "DT_HALF"}}}, {"name": "StatefulPartitionedCall/clean_plant_model_1/efficientnetv2-b0_1/block6f_expand_bn_1/batchnorm/mul", "op": "Const", "attr": {"value": {"tensor": {"dtype": "DT_FLOAT", "tensorShape": {"dim": [{"size": "1"}, {"size": "1"}, {"size": "1"}, {"size": "1152"}]}}}, "dtype": {"type": "DT_FLOAT"}}}, {"name": "StatefulPartitionedCall/clean_plant_model_1/efficientnetv2-b0_1/block6f_expand_bn_1/batchnorm/sub", "op": "Const", "attr": {"value": {"tensor": {"dtype": "DT_FLOAT", "tensorShape": {"dim": [{"size": "1"}, {"size": "1"}, {"size": "1"}, {"size": "1152"}]}}}, "dtype": {"type": "DT_FLOAT"}}}, {"name": "StatefulPartitionedCall/clean_plant_model_1/efficientnetv2-b0_1/block6f_dwconv2_1/depthwise/Cast", "op": "Const", "attr": {"value": {"tensor": {"dtype": "DT_HALF", "tensorShape": {"dim": [{"size": "3"}, {"size": "3"}, {"size": "1152"}, {"size": "1"}]}}}, "dtype": {"type": "DT_HALF"}}}, {"name": "StatefulPartitionedCall/clean_plant_model_1/efficientnetv2-b0_1/block6f_bn_1/batchnorm/mul", "op": "Const", "attr": {"value": {"tensor": {"dtype": "DT_FLOAT", "tensorShape": {"dim": [{"size": "1"}, {"size": "1"}, {"size": "1"}, {"size": "1152"}]}}}, "dtype": {"type": "DT_FLOAT"}}}, {"name": "StatefulPartitionedCall/clean_plant_model_1/efficientnetv2-b0_1/block6f_bn_1/batchnorm/sub", "op": "Const", "attr": {"value": {"tensor": {"dtype": "DT_FLOAT", "tensorShape": {"dim": [{"size": "1"}, {"size": "1"}, {"size": "1"}, {"size": "1152"}]}}}, "dtype": {"type": "DT_FLOAT"}}}, {"name": "StatefulPartitionedCall/clean_plant_model_1/efficientnetv2-b0_1/block6f_se_squeeze_1/Mean/reduction_indices", "op": "Const", "attr": {"value": {"tensor": {"dtype": "DT_INT32", "tensorShape": {"dim": [{"size": "2"}]}}}, "dtype": {"type": "DT_INT32"}}}, {"name": "StatefulPartitionedCall/clean_plant_model_1/efficientnetv2-b0_1/block6f_se_reshape_1/strided_slice/stack", "op": "Const", "attr": {"value": {"tensor": {"dtype": "DT_INT32", "tensorShape": {"dim": [{"size": "1"}]}}}, "dtype": {"type": "DT_INT32"}}}, {"name": "StatefulPartitionedCall/clean_plant_model_1/efficientnetv2-b0_1/block6f_se_reshape_1/strided_slice/stack_1", "op": "Const", "attr": {"value": {"tensor": {"dtype": "DT_INT32", "tensorShape": {"dim": [{"size": "1"}]}}}, "dtype": {"type": "DT_INT32"}}}, {"name": "StatefulPartitionedCall/clean_plant_model_1/efficientnetv2-b0_1/block6f_se_reshape_1/strided_slice/stack_2", "op": "Const", "attr": {"value": {"tensor": {"dtype": "DT_INT32", "tensorShape": {"dim": [{"size": "1"}]}}}, "dtype": {"type": "DT_INT32"}}}, {"name": "StatefulPartitionedCall/clean_plant_model_1/efficientnetv2-b0_1/block6f_se_reshape_1/Reshape/shape/1", "op": "Const", "attr": {"value": {"tensor": {"dtype": "DT_INT32", "tensorShape": {}}}, "dtype": {"type": "DT_INT32"}}}, {"name": "StatefulPartitionedCall/clean_plant_model_1/efficientnetv2-b0_1/block6f_se_reshape_1/Reshape/shape/2", "op": "Const", "attr": {"value": {"tensor": {"dtype": "DT_INT32", "tensorShape": {}}}, "dtype": {"type": "DT_INT32"}}}, {"name": "StatefulPartitionedCall/clean_plant_model_1/efficientnetv2-b0_1/block6f_se_reshape_1/Reshape/shape/3", "op": "Const", "attr": {"value": {"tensor": {"dtype": "DT_INT32", "tensorShape": {}}}, "dtype": {"type": "DT_INT32"}}}, {"name": "StatefulPartitionedCall/clean_plant_model_1/efficientnetv2-b0_1/block6f_se_reduce_1/convolution/Cast", "op": "Const", "attr": {"value": {"tensor": {"dtype": "DT_HALF", "tensorShape": {"dim": [{"size": "1"}, {"size": "1"}, {"size": "1152"}, {"size": "48"}]}}}, "dtype": {"type": "DT_HALF"}}}, {"name": "StatefulPartitionedCall/clean_plant_model_1/efficientnetv2-b0_1/block6f_se_reduce_1/Squeeze", "op": "Const", "attr": {"value": {"tensor": {"dtype": "DT_HALF", "tensorShape": {"dim": [{"size": "48"}]}}}, "dtype": {"type": "DT_HALF"}}}, {"name": "StatefulPartitionedCall/clean_plant_model_1/efficientnetv2-b0_1/block6f_se_expand_1/convolution/Cast", "op": "Const", "attr": {"value": {"tensor": {"dtype": "DT_HALF", "tensorShape": {"dim": [{"size": "1"}, {"size": "1"}, {"size": "48"}, {"size": "1152"}]}}}, "dtype": {"type": "DT_HALF"}}}, {"name": "StatefulPartitionedCall/clean_plant_model_1/efficientnetv2-b0_1/block6f_se_expand_1/Squeeze", "op": "Const", "attr": {"value": {"tensor": {"dtype": "DT_HALF", "tensorShape": {"dim": [{"size": "1152"}]}}}, "dtype": {"type": "DT_HALF"}}}, {"name": "StatefulPartitionedCall/clean_plant_model_1/efficientnetv2-b0_1/block6f_project_conv_1/convolution/Cast", "op": "Const", "attr": {"value": {"tensor": {"dtype": "DT_HALF", "tensorShape": {"dim": [{"size": "1"}, {"size": "1"}, {"size": "1152"}, {"size": "192"}]}}}, "dtype": {"type": "DT_HALF"}}}, {"name": "StatefulPartitionedCall/clean_plant_model_1/efficientnetv2-b0_1/block6f_project_bn_1/batchnorm/mul", "op": "Const", "attr": {"value": {"tensor": {"dtype": "DT_FLOAT", "tensorShape": {"dim": [{"size": "1"}, {"size": "1"}, {"size": "1"}, {"size": "192"}]}}}, "dtype": {"type": "DT_FLOAT"}}}, {"name": "StatefulPartitionedCall/clean_plant_model_1/efficientnetv2-b0_1/block6f_project_bn_1/batchnorm/sub", "op": "Const", "attr": {"value": {"tensor": {"dtype": "DT_FLOAT", "tensorShape": {"dim": [{"size": "1"}, {"size": "1"}, {"size": "1"}, {"size": "192"}]}}}, "dtype": {"type": "DT_FLOAT"}}}, {"name": "StatefulPartitionedCall/clean_plant_model_1/efficientnetv2-b0_1/block6e_expand_conv_1/convolution/Cast", "op": "Const", "attr": {"value": {"tensor": {"dtype": "DT_HALF", "tensorShape": {"dim": [{"size": "1"}, {"size": "1"}, {"size": "192"}, {"size": "1152"}]}}}, "dtype": {"type": "DT_HALF"}}}, {"name": "StatefulPartitionedCall/clean_plant_model_1/efficientnetv2-b0_1/block6e_expand_bn_1/batchnorm/mul", "op": "Const", "attr": {"value": {"tensor": {"dtype": "DT_FLOAT", "tensorShape": {"dim": [{"size": "1"}, {"size": "1"}, {"size": "1"}, {"size": "1152"}]}}}, "dtype": {"type": "DT_FLOAT"}}}, {"name": "StatefulPartitionedCall/clean_plant_model_1/efficientnetv2-b0_1/block6e_expand_bn_1/batchnorm/sub", "op": "Const", "attr": {"value": {"tensor": {"dtype": "DT_FLOAT", "tensorShape": {"dim": [{"size": "1"}, {"size": "1"}, {"size": "1"}, {"size": "1152"}]}}}, "dtype": {"type": "DT_FLOAT"}}}, {"name": "StatefulPartitionedCall/clean_plant_model_1/efficientnetv2-b0_1/block6e_dwconv2_1/depthwise/Cast", "op": "Const", "attr": {"value": {"tensor": {"dtype": "DT_HALF", "tensorShape": {"dim": [{"size": "3"}, {"size": "3"}, {"size": "1152"}, {"size": "1"}]}}}, "dtype": {"type": "DT_HALF"}}}, {"name": "StatefulPartitionedCall/clean_plant_model_1/efficientnetv2-b0_1/block6e_bn_1/batchnorm/mul", "op": "Const", "attr": {"value": {"tensor": {"dtype": "DT_FLOAT", "tensorShape": {"dim": [{"size": "1"}, {"size": "1"}, {"size": "1"}, {"size": "1152"}]}}}, "dtype": {"type": "DT_FLOAT"}}}, {"name": "StatefulPartitionedCall/clean_plant_model_1/efficientnetv2-b0_1/block6e_bn_1/batchnorm/sub", "op": "Const", "attr": {"value": {"tensor": {"dtype": "DT_FLOAT", "tensorShape": {"dim": [{"size": "1"}, {"size": "1"}, {"size": "1"}, {"size": "1152"}]}}}, "dtype": {"type": "DT_FLOAT"}}}, {"name": "StatefulPartitionedCall/clean_plant_model_1/efficientnetv2-b0_1/block6e_se_squeeze_1/Mean/reduction_indices", "op": "Const", "attr": {"value": {"tensor": {"dtype": "DT_INT32", "tensorShape": {"dim": [{"size": "2"}]}}}, "dtype": {"type": "DT_INT32"}}}, {"name": "StatefulPartitionedCall/clean_plant_model_1/efficientnetv2-b0_1/block6e_se_reshape_1/strided_slice/stack", "op": "Const", "attr": {"value": {"tensor": {"dtype": "DT_INT32", "tensorShape": {"dim": [{"size": "1"}]}}}, "dtype": {"type": "DT_INT32"}}}, {"name": "StatefulPartitionedCall/clean_plant_model_1/efficientnetv2-b0_1/block6e_se_reshape_1/strided_slice/stack_1", "op": "Const", "attr": {"value": {"tensor": {"dtype": "DT_INT32", "tensorShape": {"dim": [{"size": "1"}]}}}, "dtype": {"type": "DT_INT32"}}}, {"name": "StatefulPartitionedCall/clean_plant_model_1/efficientnetv2-b0_1/block6e_se_reshape_1/strided_slice/stack_2", "op": "Const", "attr": {"value": {"tensor": {"dtype": "DT_INT32", "tensorShape": {"dim": [{"size": "1"}]}}}, "dtype": {"type": "DT_INT32"}}}, {"name": "StatefulPartitionedCall/clean_plant_model_1/efficientnetv2-b0_1/block6e_se_reshape_1/Reshape/shape/1", "op": "Const", "attr": {"value": {"tensor": {"dtype": "DT_INT32", "tensorShape": {}}}, "dtype": {"type": "DT_INT32"}}}, {"name": "StatefulPartitionedCall/clean_plant_model_1/efficientnetv2-b0_1/block6e_se_reshape_1/Reshape/shape/2", "op": "Const", "attr": {"value": {"tensor": {"dtype": "DT_INT32", "tensorShape": {}}}, "dtype": {"type": "DT_INT32"}}}, {"name": "StatefulPartitionedCall/clean_plant_model_1/efficientnetv2-b0_1/block6e_se_reshape_1/Reshape/shape/3", "op": "Const", "attr": {"value": {"tensor": {"dtype": "DT_INT32", "tensorShape": {}}}, "dtype": {"type": "DT_INT32"}}}, {"name": "StatefulPartitionedCall/clean_plant_model_1/efficientnetv2-b0_1/block6e_se_reduce_1/convolution/Cast", "op": "Const", "attr": {"value": {"tensor": {"dtype": "DT_HALF", "tensorShape": {"dim": [{"size": "1"}, {"size": "1"}, {"size": "1152"}, {"size": "48"}]}}}, "dtype": {"type": "DT_HALF"}}}, {"name": "StatefulPartitionedCall/clean_plant_model_1/efficientnetv2-b0_1/block6e_se_reduce_1/Squeeze", "op": "Const", "attr": {"value": {"tensor": {"dtype": "DT_HALF", "tensorShape": {"dim": [{"size": "48"}]}}}, "dtype": {"type": "DT_HALF"}}}, {"name": "StatefulPartitionedCall/clean_plant_model_1/efficientnetv2-b0_1/block6e_se_expand_1/convolution/Cast", "op": "Const", "attr": {"value": {"tensor": {"dtype": "DT_HALF", "tensorShape": {"dim": [{"size": "1"}, {"size": "1"}, {"size": "48"}, {"size": "1152"}]}}}, "dtype": {"type": "DT_HALF"}}}, {"name": "StatefulPartitionedCall/clean_plant_model_1/efficientnetv2-b0_1/block6e_se_expand_1/Squeeze", "op": "Const", "attr": {"value": {"tensor": {"dtype": "DT_HALF", "tensorShape": {"dim": [{"size": "1152"}]}}}, "dtype": {"type": "DT_HALF"}}}, {"name": "StatefulPartitionedCall/clean_plant_model_1/efficientnetv2-b0_1/block6e_project_conv_1/convolution/Cast", "op": "Const", "attr": {"value": {"tensor": {"dtype": "DT_HALF", "tensorShape": {"dim": [{"size": "1"}, {"size": "1"}, {"size": "1152"}, {"size": "192"}]}}}, "dtype": {"type": "DT_HALF"}}}, {"name": "StatefulPartitionedCall/clean_plant_model_1/efficientnetv2-b0_1/block6e_project_bn_1/batchnorm/mul", "op": "Const", "attr": {"value": {"tensor": {"dtype": "DT_FLOAT", "tensorShape": {"dim": [{"size": "1"}, {"size": "1"}, {"size": "1"}, {"size": "192"}]}}}, "dtype": {"type": "DT_FLOAT"}}}, {"name": "StatefulPartitionedCall/clean_plant_model_1/efficientnetv2-b0_1/block6e_project_bn_1/batchnorm/sub", "op": "Const", "attr": {"value": {"tensor": {"dtype": "DT_FLOAT", "tensorShape": {"dim": [{"size": "1"}, {"size": "1"}, {"size": "1"}, {"size": "192"}]}}}, "dtype": {"type": "DT_FLOAT"}}}, {"name": "StatefulPartitionedCall/clean_plant_model_1/efficientnetv2-b0_1/block6d_expand_conv_1/convolution/Cast", "op": "Const", "attr": {"value": {"tensor": {"dtype": "DT_HALF", "tensorShape": {"dim": [{"size": "1"}, {"size": "1"}, {"size": "192"}, {"size": "1152"}]}}}, "dtype": {"type": "DT_HALF"}}}, {"name": "StatefulPartitionedCall/clean_plant_model_1/efficientnetv2-b0_1/block6d_expand_bn_1/batchnorm/mul", "op": "Const", "attr": {"value": {"tensor": {"dtype": "DT_FLOAT", "tensorShape": {"dim": [{"size": "1"}, {"size": "1"}, {"size": "1"}, {"size": "1152"}]}}}, "dtype": {"type": "DT_FLOAT"}}}, {"name": "StatefulPartitionedCall/clean_plant_model_1/efficientnetv2-b0_1/block6d_expand_bn_1/batchnorm/sub", "op": "Const", "attr": {"value": {"tensor": {"dtype": "DT_FLOAT", "tensorShape": {"dim": [{"size": "1"}, {"size": "1"}, {"size": "1"}, {"size": "1152"}]}}}, "dtype": {"type": "DT_FLOAT"}}}, {"name": "StatefulPartitionedCall/clean_plant_model_1/efficientnetv2-b0_1/block6d_dwconv2_1/depthwise/Cast", "op": "Const", "attr": {"value": {"tensor": {"dtype": "DT_HALF", "tensorShape": {"dim": [{"size": "3"}, {"size": "3"}, {"size": "1152"}, {"size": "1"}]}}}, "dtype": {"type": "DT_HALF"}}}, {"name": "StatefulPartitionedCall/clean_plant_model_1/efficientnetv2-b0_1/block6d_bn_1/batchnorm/mul", "op": "Const", "attr": {"value": {"tensor": {"dtype": "DT_FLOAT", "tensorShape": {"dim": [{"size": "1"}, {"size": "1"}, {"size": "1"}, {"size": "1152"}]}}}, "dtype": {"type": "DT_FLOAT"}}}, {"name": "StatefulPartitionedCall/clean_plant_model_1/efficientnetv2-b0_1/block6d_bn_1/batchnorm/sub", "op": "Const", "attr": {"value": {"tensor": {"dtype": "DT_FLOAT", "tensorShape": {"dim": [{"size": "1"}, {"size": "1"}, {"size": "1"}, {"size": "1152"}]}}}, "dtype": {"type": "DT_FLOAT"}}}, {"name": "StatefulPartitionedCall/clean_plant_model_1/efficientnetv2-b0_1/block6d_se_squeeze_1/Mean/reduction_indices", "op": "Const", "attr": {"value": {"tensor": {"dtype": "DT_INT32", "tensorShape": {"dim": [{"size": "2"}]}}}, "dtype": {"type": "DT_INT32"}}}, {"name": "StatefulPartitionedCall/clean_plant_model_1/efficientnetv2-b0_1/block6d_se_reshape_1/strided_slice/stack", "op": "Const", "attr": {"value": {"tensor": {"dtype": "DT_INT32", "tensorShape": {"dim": [{"size": "1"}]}}}, "dtype": {"type": "DT_INT32"}}}, {"name": "StatefulPartitionedCall/clean_plant_model_1/efficientnetv2-b0_1/block6d_se_reshape_1/strided_slice/stack_1", "op": "Const", "attr": {"value": {"tensor": {"dtype": "DT_INT32", "tensorShape": {"dim": [{"size": "1"}]}}}, "dtype": {"type": "DT_INT32"}}}, {"name": "StatefulPartitionedCall/clean_plant_model_1/efficientnetv2-b0_1/block6d_se_reshape_1/strided_slice/stack_2", "op": "Const", "attr": {"value": {"tensor": {"dtype": "DT_INT32", "tensorShape": {"dim": [{"size": "1"}]}}}, "dtype": {"type": "DT_INT32"}}}, {"name": "StatefulPartitionedCall/clean_plant_model_1/efficientnetv2-b0_1/block6d_se_reshape_1/Reshape/shape/1", "op": "Const", "attr": {"value": {"tensor": {"dtype": "DT_INT32", "tensorShape": {}}}, "dtype": {"type": "DT_INT32"}}}, {"name": "StatefulPartitionedCall/clean_plant_model_1/efficientnetv2-b0_1/block6d_se_reshape_1/Reshape/shape/2", "op": "Const", "attr": {"value": {"tensor": {"dtype": "DT_INT32", "tensorShape": {}}}, "dtype": {"type": "DT_INT32"}}}, {"name": "StatefulPartitionedCall/clean_plant_model_1/efficientnetv2-b0_1/block6d_se_reshape_1/Reshape/shape/3", "op": "Const", "attr": {"value": {"tensor": {"dtype": "DT_INT32", "tensorShape": {}}}, "dtype": {"type": "DT_INT32"}}}, {"name": "StatefulPartitionedCall/clean_plant_model_1/efficientnetv2-b0_1/block6d_se_reduce_1/convolution/Cast", "op": "Const", "attr": {"value": {"tensor": {"dtype": "DT_HALF", "tensorShape": {"dim": [{"size": "1"}, {"size": "1"}, {"size": "1152"}, {"size": "48"}]}}}, "dtype": {"type": "DT_HALF"}}}, {"name": "StatefulPartitionedCall/clean_plant_model_1/efficientnetv2-b0_1/block6d_se_reduce_1/Squeeze", "op": "Const", "attr": {"value": {"tensor": {"dtype": "DT_HALF", "tensorShape": {"dim": [{"size": "48"}]}}}, "dtype": {"type": "DT_HALF"}}}, {"name": "StatefulPartitionedCall/clean_plant_model_1/efficientnetv2-b0_1/block6d_se_expand_1/convolution/Cast", "op": "Const", "attr": {"value": {"tensor": {"dtype": "DT_HALF", "tensorShape": {"dim": [{"size": "1"}, {"size": "1"}, {"size": "48"}, {"size": "1152"}]}}}, "dtype": {"type": "DT_HALF"}}}, {"name": "StatefulPartitionedCall/clean_plant_model_1/efficientnetv2-b0_1/block6d_se_expand_1/Squeeze", "op": "Const", "attr": {"value": {"tensor": {"dtype": "DT_HALF", "tensorShape": {"dim": [{"size": "1152"}]}}}, "dtype": {"type": "DT_HALF"}}}, {"name": "StatefulPartitionedCall/clean_plant_model_1/efficientnetv2-b0_1/block6d_project_conv_1/convolution/Cast", "op": "Const", "attr": {"value": {"tensor": {"dtype": "DT_HALF", "tensorShape": {"dim": [{"size": "1"}, {"size": "1"}, {"size": "1152"}, {"size": "192"}]}}}, "dtype": {"type": "DT_HALF"}}}, {"name": "StatefulPartitionedCall/clean_plant_model_1/efficientnetv2-b0_1/block6d_project_bn_1/batchnorm/mul", "op": "Const", "attr": {"value": {"tensor": {"dtype": "DT_FLOAT", "tensorShape": {"dim": [{"size": "1"}, {"size": "1"}, {"size": "1"}, {"size": "192"}]}}}, "dtype": {"type": "DT_FLOAT"}}}, {"name": "StatefulPartitionedCall/clean_plant_model_1/efficientnetv2-b0_1/block6d_project_bn_1/batchnorm/sub", "op": "Const", "attr": {"value": {"tensor": {"dtype": "DT_FLOAT", "tensorShape": {"dim": [{"size": "1"}, {"size": "1"}, {"size": "1"}, {"size": "192"}]}}}, "dtype": {"type": "DT_FLOAT"}}}, {"name": "StatefulPartitionedCall/clean_plant_model_1/efficientnetv2-b0_1/block6c_expand_conv_1/convolution/Cast", "op": "Const", "attr": {"value": {"tensor": {"dtype": "DT_HALF", "tensorShape": {"dim": [{"size": "1"}, {"size": "1"}, {"size": "192"}, {"size": "1152"}]}}}, "dtype": {"type": "DT_HALF"}}}, {"name": "StatefulPartitionedCall/clean_plant_model_1/efficientnetv2-b0_1/block6c_expand_bn_1/batchnorm/mul", "op": "Const", "attr": {"value": {"tensor": {"dtype": "DT_FLOAT", "tensorShape": {"dim": [{"size": "1"}, {"size": "1"}, {"size": "1"}, {"size": "1152"}]}}}, "dtype": {"type": "DT_FLOAT"}}}, {"name": "StatefulPartitionedCall/clean_plant_model_1/efficientnetv2-b0_1/block6c_expand_bn_1/batchnorm/sub", "op": "Const", "attr": {"value": {"tensor": {"dtype": "DT_FLOAT", "tensorShape": {"dim": [{"size": "1"}, {"size": "1"}, {"size": "1"}, {"size": "1152"}]}}}, "dtype": {"type": "DT_FLOAT"}}}, {"name": "StatefulPartitionedCall/clean_plant_model_1/efficientnetv2-b0_1/block6c_dwconv2_1/depthwise/Cast", "op": "Const", "attr": {"value": {"tensor": {"dtype": "DT_HALF", "tensorShape": {"dim": [{"size": "3"}, {"size": "3"}, {"size": "1152"}, {"size": "1"}]}}}, "dtype": {"type": "DT_HALF"}}}, {"name": "StatefulPartitionedCall/clean_plant_model_1/efficientnetv2-b0_1/block6c_bn_1/batchnorm/mul", "op": "Const", "attr": {"value": {"tensor": {"dtype": "DT_FLOAT", "tensorShape": {"dim": [{"size": "1"}, {"size": "1"}, {"size": "1"}, {"size": "1152"}]}}}, "dtype": {"type": "DT_FLOAT"}}}, {"name": "StatefulPartitionedCall/clean_plant_model_1/efficientnetv2-b0_1/block6c_bn_1/batchnorm/sub", "op": "Const", "attr": {"value": {"tensor": {"dtype": "DT_FLOAT", "tensorShape": {"dim": [{"size": "1"}, {"size": "1"}, {"size": "1"}, {"size": "1152"}]}}}, "dtype": {"type": "DT_FLOAT"}}}, {"name": "StatefulPartitionedCall/clean_plant_model_1/efficientnetv2-b0_1/block6c_se_squeeze_1/Mean/reduction_indices", "op": "Const", "attr": {"value": {"tensor": {"dtype": "DT_INT32", "tensorShape": {"dim": [{"size": "2"}]}}}, "dtype": {"type": "DT_INT32"}}}, {"name": "StatefulPartitionedCall/clean_plant_model_1/efficientnetv2-b0_1/block6c_se_reshape_1/strided_slice/stack", "op": "Const", "attr": {"value": {"tensor": {"dtype": "DT_INT32", "tensorShape": {"dim": [{"size": "1"}]}}}, "dtype": {"type": "DT_INT32"}}}, {"name": "StatefulPartitionedCall/clean_plant_model_1/efficientnetv2-b0_1/block6c_se_reshape_1/strided_slice/stack_1", "op": "Const", "attr": {"value": {"tensor": {"dtype": "DT_INT32", "tensorShape": {"dim": [{"size": "1"}]}}}, "dtype": {"type": "DT_INT32"}}}, {"name": "StatefulPartitionedCall/clean_plant_model_1/efficientnetv2-b0_1/block6c_se_reshape_1/strided_slice/stack_2", "op": "Const", "attr": {"value": {"tensor": {"dtype": "DT_INT32", "tensorShape": {"dim": [{"size": "1"}]}}}, "dtype": {"type": "DT_INT32"}}}, {"name": "StatefulPartitionedCall/clean_plant_model_1/efficientnetv2-b0_1/block6c_se_reshape_1/Reshape/shape/1", "op": "Const", "attr": {"value": {"tensor": {"dtype": "DT_INT32", "tensorShape": {}}}, "dtype": {"type": "DT_INT32"}}}, {"name": "StatefulPartitionedCall/clean_plant_model_1/efficientnetv2-b0_1/block6c_se_reshape_1/Reshape/shape/2", "op": "Const", "attr": {"value": {"tensor": {"dtype": "DT_INT32", "tensorShape": {}}}, "dtype": {"type": "DT_INT32"}}}, {"name": "StatefulPartitionedCall/clean_plant_model_1/efficientnetv2-b0_1/block6c_se_reshape_1/Reshape/shape/3", "op": "Const", "attr": {"value": {"tensor": {"dtype": "DT_INT32", "tensorShape": {}}}, "dtype": {"type": "DT_INT32"}}}, {"name": "StatefulPartitionedCall/clean_plant_model_1/efficientnetv2-b0_1/block6c_se_reduce_1/convolution/Cast", "op": "Const", "attr": {"value": {"tensor": {"dtype": "DT_HALF", "tensorShape": {"dim": [{"size": "1"}, {"size": "1"}, {"size": "1152"}, {"size": "48"}]}}}, "dtype": {"type": "DT_HALF"}}}, {"name": "StatefulPartitionedCall/clean_plant_model_1/efficientnetv2-b0_1/block6c_se_reduce_1/Squeeze", "op": "Const", "attr": {"value": {"tensor": {"dtype": "DT_HALF", "tensorShape": {"dim": [{"size": "48"}]}}}, "dtype": {"type": "DT_HALF"}}}, {"name": "StatefulPartitionedCall/clean_plant_model_1/efficientnetv2-b0_1/block6c_se_expand_1/convolution/Cast", "op": "Const", "attr": {"value": {"tensor": {"dtype": "DT_HALF", "tensorShape": {"dim": [{"size": "1"}, {"size": "1"}, {"size": "48"}, {"size": "1152"}]}}}, "dtype": {"type": "DT_HALF"}}}, {"name": "StatefulPartitionedCall/clean_plant_model_1/efficientnetv2-b0_1/block6c_se_expand_1/Squeeze", "op": "Const", "attr": {"value": {"tensor": {"dtype": "DT_HALF", "tensorShape": {"dim": [{"size": "1152"}]}}}, "dtype": {"type": "DT_HALF"}}}, {"name": "StatefulPartitionedCall/clean_plant_model_1/efficientnetv2-b0_1/block6c_project_conv_1/convolution/Cast", "op": "Const", "attr": {"value": {"tensor": {"dtype": "DT_HALF", "tensorShape": {"dim": [{"size": "1"}, {"size": "1"}, {"size": "1152"}, {"size": "192"}]}}}, "dtype": {"type": "DT_HALF"}}}, {"name": "StatefulPartitionedCall/clean_plant_model_1/efficientnetv2-b0_1/block6c_project_bn_1/batchnorm/mul", "op": "Const", "attr": {"value": {"tensor": {"dtype": "DT_FLOAT", "tensorShape": {"dim": [{"size": "1"}, {"size": "1"}, {"size": "1"}, {"size": "192"}]}}}, "dtype": {"type": "DT_FLOAT"}}}, {"name": "StatefulPartitionedCall/clean_plant_model_1/efficientnetv2-b0_1/block6c_project_bn_1/batchnorm/sub", "op": "Const", "attr": {"value": {"tensor": {"dtype": "DT_FLOAT", "tensorShape": {"dim": [{"size": "1"}, {"size": "1"}, {"size": "1"}, {"size": "192"}]}}}, "dtype": {"type": "DT_FLOAT"}}}, {"name": "StatefulPartitionedCall/clean_plant_model_1/efficientnetv2-b0_1/block6b_expand_conv_1/convolution/Cast", "op": "Const", "attr": {"value": {"tensor": {"dtype": "DT_HALF", "tensorShape": {"dim": [{"size": "1"}, {"size": "1"}, {"size": "192"}, {"size": "1152"}]}}}, "dtype": {"type": "DT_HALF"}}}, {"name": "StatefulPartitionedCall/clean_plant_model_1/efficientnetv2-b0_1/block6b_expand_bn_1/batchnorm/mul", "op": "Const", "attr": {"value": {"tensor": {"dtype": "DT_FLOAT", "tensorShape": {"dim": [{"size": "1"}, {"size": "1"}, {"size": "1"}, {"size": "1152"}]}}}, "dtype": {"type": "DT_FLOAT"}}}, {"name": "StatefulPartitionedCall/clean_plant_model_1/efficientnetv2-b0_1/block6b_expand_bn_1/batchnorm/sub", "op": "Const", "attr": {"value": {"tensor": {"dtype": "DT_FLOAT", "tensorShape": {"dim": [{"size": "1"}, {"size": "1"}, {"size": "1"}, {"size": "1152"}]}}}, "dtype": {"type": "DT_FLOAT"}}}, {"name": "StatefulPartitionedCall/clean_plant_model_1/efficientnetv2-b0_1/block6b_dwconv2_1/depthwise/Cast", "op": "Const", "attr": {"value": {"tensor": {"dtype": "DT_HALF", "tensorShape": {"dim": [{"size": "3"}, {"size": "3"}, {"size": "1152"}, {"size": "1"}]}}}, "dtype": {"type": "DT_HALF"}}}, {"name": "StatefulPartitionedCall/clean_plant_model_1/efficientnetv2-b0_1/block6b_bn_1/batchnorm/mul", "op": "Const", "attr": {"value": {"tensor": {"dtype": "DT_FLOAT", "tensorShape": {"dim": [{"size": "1"}, {"size": "1"}, {"size": "1"}, {"size": "1152"}]}}}, "dtype": {"type": "DT_FLOAT"}}}, {"name": "StatefulPartitionedCall/clean_plant_model_1/efficientnetv2-b0_1/block6b_bn_1/batchnorm/sub", "op": "Const", "attr": {"value": {"tensor": {"dtype": "DT_FLOAT", "tensorShape": {"dim": [{"size": "1"}, {"size": "1"}, {"size": "1"}, {"size": "1152"}]}}}, "dtype": {"type": "DT_FLOAT"}}}, {"name": "StatefulPartitionedCall/clean_plant_model_1/efficientnetv2-b0_1/block6b_se_squeeze_1/Mean/reduction_indices", "op": "Const", "attr": {"value": {"tensor": {"dtype": "DT_INT32", "tensorShape": {"dim": [{"size": "2"}]}}}, "dtype": {"type": "DT_INT32"}}}, {"name": "StatefulPartitionedCall/clean_plant_model_1/efficientnetv2-b0_1/block6b_se_reshape_1/strided_slice/stack", "op": "Const", "attr": {"value": {"tensor": {"dtype": "DT_INT32", "tensorShape": {"dim": [{"size": "1"}]}}}, "dtype": {"type": "DT_INT32"}}}, {"name": "StatefulPartitionedCall/clean_plant_model_1/efficientnetv2-b0_1/block6b_se_reshape_1/strided_slice/stack_1", "op": "Const", "attr": {"value": {"tensor": {"dtype": "DT_INT32", "tensorShape": {"dim": [{"size": "1"}]}}}, "dtype": {"type": "DT_INT32"}}}, {"name": "StatefulPartitionedCall/clean_plant_model_1/efficientnetv2-b0_1/block6b_se_reshape_1/strided_slice/stack_2", "op": "Const", "attr": {"value": {"tensor": {"dtype": "DT_INT32", "tensorShape": {"dim": [{"size": "1"}]}}}, "dtype": {"type": "DT_INT32"}}}, {"name": "StatefulPartitionedCall/clean_plant_model_1/efficientnetv2-b0_1/block6b_se_reshape_1/Reshape/shape/1", "op": "Const", "attr": {"value": {"tensor": {"dtype": "DT_INT32", "tensorShape": {}}}, "dtype": {"type": "DT_INT32"}}}, {"name": "StatefulPartitionedCall/clean_plant_model_1/efficientnetv2-b0_1/block6b_se_reshape_1/Reshape/shape/2", "op": "Const", "attr": {"value": {"tensor": {"dtype": "DT_INT32", "tensorShape": {}}}, "dtype": {"type": "DT_INT32"}}}, {"name": "StatefulPartitionedCall/clean_plant_model_1/efficientnetv2-b0_1/block6b_se_reshape_1/Reshape/shape/3", "op": "Const", "attr": {"value": {"tensor": {"dtype": "DT_INT32", "tensorShape": {}}}, "dtype": {"type": "DT_INT32"}}}, {"name": "StatefulPartitionedCall/clean_plant_model_1/efficientnetv2-b0_1/block6b_se_reduce_1/convolution/Cast", "op": "Const", "attr": {"value": {"tensor": {"dtype": "DT_HALF", "tensorShape": {"dim": [{"size": "1"}, {"size": "1"}, {"size": "1152"}, {"size": "48"}]}}}, "dtype": {"type": "DT_HALF"}}}, {"name": "StatefulPartitionedCall/clean_plant_model_1/efficientnetv2-b0_1/block6b_se_reduce_1/Squeeze", "op": "Const", "attr": {"value": {"tensor": {"dtype": "DT_HALF", "tensorShape": {"dim": [{"size": "48"}]}}}, "dtype": {"type": "DT_HALF"}}}, {"name": "StatefulPartitionedCall/clean_plant_model_1/efficientnetv2-b0_1/block6b_se_expand_1/convolution/Cast", "op": "Const", "attr": {"value": {"tensor": {"dtype": "DT_HALF", "tensorShape": {"dim": [{"size": "1"}, {"size": "1"}, {"size": "48"}, {"size": "1152"}]}}}, "dtype": {"type": "DT_HALF"}}}, {"name": "StatefulPartitionedCall/clean_plant_model_1/efficientnetv2-b0_1/block6b_se_expand_1/Squeeze", "op": "Const", "attr": {"value": {"tensor": {"dtype": "DT_HALF", "tensorShape": {"dim": [{"size": "1152"}]}}}, "dtype": {"type": "DT_HALF"}}}, {"name": "StatefulPartitionedCall/clean_plant_model_1/efficientnetv2-b0_1/block6b_project_conv_1/convolution/Cast", "op": "Const", "attr": {"value": {"tensor": {"dtype": "DT_HALF", "tensorShape": {"dim": [{"size": "1"}, {"size": "1"}, {"size": "1152"}, {"size": "192"}]}}}, "dtype": {"type": "DT_HALF"}}}, {"name": "StatefulPartitionedCall/clean_plant_model_1/efficientnetv2-b0_1/block6b_project_bn_1/batchnorm/mul", "op": "Const", "attr": {"value": {"tensor": {"dtype": "DT_FLOAT", "tensorShape": {"dim": [{"size": "1"}, {"size": "1"}, {"size": "1"}, {"size": "192"}]}}}, "dtype": {"type": "DT_FLOAT"}}}, {"name": "StatefulPartitionedCall/clean_plant_model_1/efficientnetv2-b0_1/block6b_project_bn_1/batchnorm/sub", "op": "Const", "attr": {"value": {"tensor": {"dtype": "DT_FLOAT", "tensorShape": {"dim": [{"size": "1"}, {"size": "1"}, {"size": "1"}, {"size": "192"}]}}}, "dtype": {"type": "DT_FLOAT"}}}, {"name": "StatefulPartitionedCall/clean_plant_model_1/efficientnetv2-b0_1/block5e_expand_conv_1/convolution/Cast", "op": "Const", "attr": {"value": {"tensor": {"dtype": "DT_HALF", "tensorShape": {"dim": [{"size": "1"}, {"size": "1"}, {"size": "112"}, {"size": "672"}]}}}, "dtype": {"type": "DT_HALF"}}}, {"name": "StatefulPartitionedCall/clean_plant_model_1/efficientnetv2-b0_1/block5e_expand_bn_1/batchnorm/mul", "op": "Const", "attr": {"value": {"tensor": {"dtype": "DT_FLOAT", "tensorShape": {"dim": [{"size": "1"}, {"size": "1"}, {"size": "1"}, {"size": "672"}]}}}, "dtype": {"type": "DT_FLOAT"}}}, {"name": "StatefulPartitionedCall/clean_plant_model_1/efficientnetv2-b0_1/block5e_expand_bn_1/batchnorm/sub", "op": "Const", "attr": {"value": {"tensor": {"dtype": "DT_FLOAT", "tensorShape": {"dim": [{"size": "1"}, {"size": "1"}, {"size": "1"}, {"size": "672"}]}}}, "dtype": {"type": "DT_FLOAT"}}}, {"name": "StatefulPartitionedCall/clean_plant_model_1/efficientnetv2-b0_1/block5e_dwconv2_1/depthwise/Cast", "op": "Const", "attr": {"value": {"tensor": {"dtype": "DT_HALF", "tensorShape": {"dim": [{"size": "3"}, {"size": "3"}, {"size": "672"}, {"size": "1"}]}}}, "dtype": {"type": "DT_HALF"}}}, {"name": "StatefulPartitionedCall/clean_plant_model_1/efficientnetv2-b0_1/block5e_bn_1/batchnorm/mul", "op": "Const", "attr": {"value": {"tensor": {"dtype": "DT_FLOAT", "tensorShape": {"dim": [{"size": "1"}, {"size": "1"}, {"size": "1"}, {"size": "672"}]}}}, "dtype": {"type": "DT_FLOAT"}}}, {"name": "StatefulPartitionedCall/clean_plant_model_1/efficientnetv2-b0_1/block5e_bn_1/batchnorm/sub", "op": "Const", "attr": {"value": {"tensor": {"dtype": "DT_FLOAT", "tensorShape": {"dim": [{"size": "1"}, {"size": "1"}, {"size": "1"}, {"size": "672"}]}}}, "dtype": {"type": "DT_FLOAT"}}}, {"name": "StatefulPartitionedCall/clean_plant_model_1/efficientnetv2-b0_1/block5e_se_squeeze_1/Mean/reduction_indices", "op": "Const", "attr": {"value": {"tensor": {"dtype": "DT_INT32", "tensorShape": {"dim": [{"size": "2"}]}}}, "dtype": {"type": "DT_INT32"}}}, {"name": "StatefulPartitionedCall/clean_plant_model_1/efficientnetv2-b0_1/block5e_se_reshape_1/strided_slice/stack", "op": "Const", "attr": {"value": {"tensor": {"dtype": "DT_INT32", "tensorShape": {"dim": [{"size": "1"}]}}}, "dtype": {"type": "DT_INT32"}}}, {"name": "StatefulPartitionedCall/clean_plant_model_1/efficientnetv2-b0_1/block5e_se_reshape_1/strided_slice/stack_1", "op": "Const", "attr": {"value": {"tensor": {"dtype": "DT_INT32", "tensorShape": {"dim": [{"size": "1"}]}}}, "dtype": {"type": "DT_INT32"}}}, {"name": "StatefulPartitionedCall/clean_plant_model_1/efficientnetv2-b0_1/block5e_se_reshape_1/strided_slice/stack_2", "op": "Const", "attr": {"value": {"tensor": {"dtype": "DT_INT32", "tensorShape": {"dim": [{"size": "1"}]}}}, "dtype": {"type": "DT_INT32"}}}, {"name": "StatefulPartitionedCall/clean_plant_model_1/efficientnetv2-b0_1/block5e_se_reshape_1/Reshape/shape/1", "op": "Const", "attr": {"value": {"tensor": {"dtype": "DT_INT32", "tensorShape": {}}}, "dtype": {"type": "DT_INT32"}}}, {"name": "StatefulPartitionedCall/clean_plant_model_1/efficientnetv2-b0_1/block5e_se_reshape_1/Reshape/shape/2", "op": "Const", "attr": {"value": {"tensor": {"dtype": "DT_INT32", "tensorShape": {}}}, "dtype": {"type": "DT_INT32"}}}, {"name": "StatefulPartitionedCall/clean_plant_model_1/efficientnetv2-b0_1/block5e_se_reshape_1/Reshape/shape/3", "op": "Const", "attr": {"value": {"tensor": {"dtype": "DT_INT32", "tensorShape": {}}}, "dtype": {"type": "DT_INT32"}}}, {"name": "StatefulPartitionedCall/clean_plant_model_1/efficientnetv2-b0_1/block5e_se_reduce_1/convolution/Cast", "op": "Const", "attr": {"value": {"tensor": {"dtype": "DT_HALF", "tensorShape": {"dim": [{"size": "1"}, {"size": "1"}, {"size": "672"}, {"size": "28"}]}}}, "dtype": {"type": "DT_HALF"}}}, {"name": "StatefulPartitionedCall/clean_plant_model_1/efficientnetv2-b0_1/block5e_se_reduce_1/Squeeze", "op": "Const", "attr": {"value": {"tensor": {"dtype": "DT_HALF", "tensorShape": {"dim": [{"size": "28"}]}}}, "dtype": {"type": "DT_HALF"}}}, {"name": "StatefulPartitionedCall/clean_plant_model_1/efficientnetv2-b0_1/block5e_se_expand_1/convolution/Cast", "op": "Const", "attr": {"value": {"tensor": {"dtype": "DT_HALF", "tensorShape": {"dim": [{"size": "1"}, {"size": "1"}, {"size": "28"}, {"size": "672"}]}}}, "dtype": {"type": "DT_HALF"}}}, {"name": "StatefulPartitionedCall/clean_plant_model_1/efficientnetv2-b0_1/block5e_se_expand_1/Squeeze", "op": "Const", "attr": {"value": {"tensor": {"dtype": "DT_HALF", "tensorShape": {"dim": [{"size": "672"}]}}}, "dtype": {"type": "DT_HALF"}}}, {"name": "StatefulPartitionedCall/clean_plant_model_1/efficientnetv2-b0_1/block5e_project_conv_1/convolution/Cast", "op": "Const", "attr": {"value": {"tensor": {"dtype": "DT_HALF", "tensorShape": {"dim": [{"size": "1"}, {"size": "1"}, {"size": "672"}, {"size": "112"}]}}}, "dtype": {"type": "DT_HALF"}}}, {"name": "StatefulPartitionedCall/clean_plant_model_1/efficientnetv2-b0_1/block5e_project_bn_1/batchnorm/mul", "op": "Const", "attr": {"value": {"tensor": {"dtype": "DT_FLOAT", "tensorShape": {"dim": [{"size": "1"}, {"size": "1"}, {"size": "1"}, {"size": "112"}]}}}, "dtype": {"type": "DT_FLOAT"}}}, {"name": "StatefulPartitionedCall/clean_plant_model_1/efficientnetv2-b0_1/block5e_project_bn_1/batchnorm/sub", "op": "Const", "attr": {"value": {"tensor": {"dtype": "DT_FLOAT", "tensorShape": {"dim": [{"size": "1"}, {"size": "1"}, {"size": "1"}, {"size": "112"}]}}}, "dtype": {"type": "DT_FLOAT"}}}, {"name": "StatefulPartitionedCall/clean_plant_model_1/efficientnetv2-b0_1/block5d_expand_conv_1/convolution/Cast", "op": "Const", "attr": {"value": {"tensor": {"dtype": "DT_HALF", "tensorShape": {"dim": [{"size": "1"}, {"size": "1"}, {"size": "112"}, {"size": "672"}]}}}, "dtype": {"type": "DT_HALF"}}}, {"name": "StatefulPartitionedCall/clean_plant_model_1/efficientnetv2-b0_1/block5d_expand_bn_1/batchnorm/mul", "op": "Const", "attr": {"value": {"tensor": {"dtype": "DT_FLOAT", "tensorShape": {"dim": [{"size": "1"}, {"size": "1"}, {"size": "1"}, {"size": "672"}]}}}, "dtype": {"type": "DT_FLOAT"}}}, {"name": "StatefulPartitionedCall/clean_plant_model_1/efficientnetv2-b0_1/block5d_expand_bn_1/batchnorm/sub", "op": "Const", "attr": {"value": {"tensor": {"dtype": "DT_FLOAT", "tensorShape": {"dim": [{"size": "1"}, {"size": "1"}, {"size": "1"}, {"size": "672"}]}}}, "dtype": {"type": "DT_FLOAT"}}}, {"name": "StatefulPartitionedCall/clean_plant_model_1/efficientnetv2-b0_1/block5d_dwconv2_1/depthwise/Cast", "op": "Const", "attr": {"value": {"tensor": {"dtype": "DT_HALF", "tensorShape": {"dim": [{"size": "3"}, {"size": "3"}, {"size": "672"}, {"size": "1"}]}}}, "dtype": {"type": "DT_HALF"}}}, {"name": "StatefulPartitionedCall/clean_plant_model_1/efficientnetv2-b0_1/block5d_bn_1/batchnorm/mul", "op": "Const", "attr": {"value": {"tensor": {"dtype": "DT_FLOAT", "tensorShape": {"dim": [{"size": "1"}, {"size": "1"}, {"size": "1"}, {"size": "672"}]}}}, "dtype": {"type": "DT_FLOAT"}}}, {"name": "StatefulPartitionedCall/clean_plant_model_1/efficientnetv2-b0_1/block5d_bn_1/batchnorm/sub", "op": "Const", "attr": {"value": {"tensor": {"dtype": "DT_FLOAT", "tensorShape": {"dim": [{"size": "1"}, {"size": "1"}, {"size": "1"}, {"size": "672"}]}}}, "dtype": {"type": "DT_FLOAT"}}}, {"name": "StatefulPartitionedCall/clean_plant_model_1/efficientnetv2-b0_1/block5d_se_squeeze_1/Mean/reduction_indices", "op": "Const", "attr": {"value": {"tensor": {"dtype": "DT_INT32", "tensorShape": {"dim": [{"size": "2"}]}}}, "dtype": {"type": "DT_INT32"}}}, {"name": "StatefulPartitionedCall/clean_plant_model_1/efficientnetv2-b0_1/block5d_se_reshape_1/strided_slice/stack", "op": "Const", "attr": {"value": {"tensor": {"dtype": "DT_INT32", "tensorShape": {"dim": [{"size": "1"}]}}}, "dtype": {"type": "DT_INT32"}}}, {"name": "StatefulPartitionedCall/clean_plant_model_1/efficientnetv2-b0_1/block5d_se_reshape_1/strided_slice/stack_1", "op": "Const", "attr": {"value": {"tensor": {"dtype": "DT_INT32", "tensorShape": {"dim": [{"size": "1"}]}}}, "dtype": {"type": "DT_INT32"}}}, {"name": "StatefulPartitionedCall/clean_plant_model_1/efficientnetv2-b0_1/block5d_se_reshape_1/strided_slice/stack_2", "op": "Const", "attr": {"value": {"tensor": {"dtype": "DT_INT32", "tensorShape": {"dim": [{"size": "1"}]}}}, "dtype": {"type": "DT_INT32"}}}, {"name": "StatefulPartitionedCall/clean_plant_model_1/efficientnetv2-b0_1/block5d_se_reshape_1/Reshape/shape/1", "op": "Const", "attr": {"value": {"tensor": {"dtype": "DT_INT32", "tensorShape": {}}}, "dtype": {"type": "DT_INT32"}}}, {"name": "StatefulPartitionedCall/clean_plant_model_1/efficientnetv2-b0_1/block5d_se_reshape_1/Reshape/shape/2", "op": "Const", "attr": {"value": {"tensor": {"dtype": "DT_INT32", "tensorShape": {}}}, "dtype": {"type": "DT_INT32"}}}, {"name": "StatefulPartitionedCall/clean_plant_model_1/efficientnetv2-b0_1/block5d_se_reshape_1/Reshape/shape/3", "op": "Const", "attr": {"value": {"tensor": {"dtype": "DT_INT32", "tensorShape": {}}}, "dtype": {"type": "DT_INT32"}}}, {"name": "StatefulPartitionedCall/clean_plant_model_1/efficientnetv2-b0_1/block5d_se_reduce_1/convolution/Cast", "op": "Const", "attr": {"value": {"tensor": {"dtype": "DT_HALF", "tensorShape": {"dim": [{"size": "1"}, {"size": "1"}, {"size": "672"}, {"size": "28"}]}}}, "dtype": {"type": "DT_HALF"}}}, {"name": "StatefulPartitionedCall/clean_plant_model_1/efficientnetv2-b0_1/block5d_se_reduce_1/Squeeze", "op": "Const", "attr": {"value": {"tensor": {"dtype": "DT_HALF", "tensorShape": {"dim": [{"size": "28"}]}}}, "dtype": {"type": "DT_HALF"}}}, {"name": "StatefulPartitionedCall/clean_plant_model_1/efficientnetv2-b0_1/block5d_se_expand_1/convolution/Cast", "op": "Const", "attr": {"value": {"tensor": {"dtype": "DT_HALF", "tensorShape": {"dim": [{"size": "1"}, {"size": "1"}, {"size": "28"}, {"size": "672"}]}}}, "dtype": {"type": "DT_HALF"}}}, {"name": "StatefulPartitionedCall/clean_plant_model_1/efficientnetv2-b0_1/block5d_se_expand_1/Squeeze", "op": "Const", "attr": {"value": {"tensor": {"dtype": "DT_HALF", "tensorShape": {"dim": [{"size": "672"}]}}}, "dtype": {"type": "DT_HALF"}}}, {"name": "StatefulPartitionedCall/clean_plant_model_1/efficientnetv2-b0_1/block5d_project_conv_1/convolution/Cast", "op": "Const", "attr": {"value": {"tensor": {"dtype": "DT_HALF", "tensorShape": {"dim": [{"size": "1"}, {"size": "1"}, {"size": "672"}, {"size": "112"}]}}}, "dtype": {"type": "DT_HALF"}}}, {"name": "StatefulPartitionedCall/clean_plant_model_1/efficientnetv2-b0_1/block5d_project_bn_1/batchnorm/mul", "op": "Const", "attr": {"value": {"tensor": {"dtype": "DT_FLOAT", "tensorShape": {"dim": [{"size": "1"}, {"size": "1"}, {"size": "1"}, {"size": "112"}]}}}, "dtype": {"type": "DT_FLOAT"}}}, {"name": "StatefulPartitionedCall/clean_plant_model_1/efficientnetv2-b0_1/block5d_project_bn_1/batchnorm/sub", "op": "Const", "attr": {"value": {"tensor": {"dtype": "DT_FLOAT", "tensorShape": {"dim": [{"size": "1"}, {"size": "1"}, {"size": "1"}, {"size": "112"}]}}}, "dtype": {"type": "DT_FLOAT"}}}, {"name": "StatefulPartitionedCall/clean_plant_model_1/efficientnetv2-b0_1/block5c_expand_conv_1/convolution/Cast", "op": "Const", "attr": {"value": {"tensor": {"dtype": "DT_HALF", "tensorShape": {"dim": [{"size": "1"}, {"size": "1"}, {"size": "112"}, {"size": "672"}]}}}, "dtype": {"type": "DT_HALF"}}}, {"name": "StatefulPartitionedCall/clean_plant_model_1/efficientnetv2-b0_1/block5c_expand_bn_1/batchnorm/mul", "op": "Const", "attr": {"value": {"tensor": {"dtype": "DT_FLOAT", "tensorShape": {"dim": [{"size": "1"}, {"size": "1"}, {"size": "1"}, {"size": "672"}]}}}, "dtype": {"type": "DT_FLOAT"}}}, {"name": "StatefulPartitionedCall/clean_plant_model_1/efficientnetv2-b0_1/block5c_expand_bn_1/batchnorm/sub", "op": "Const", "attr": {"value": {"tensor": {"dtype": "DT_FLOAT", "tensorShape": {"dim": [{"size": "1"}, {"size": "1"}, {"size": "1"}, {"size": "672"}]}}}, "dtype": {"type": "DT_FLOAT"}}}, {"name": "StatefulPartitionedCall/clean_plant_model_1/efficientnetv2-b0_1/block5c_dwconv2_1/depthwise/Cast", "op": "Const", "attr": {"value": {"tensor": {"dtype": "DT_HALF", "tensorShape": {"dim": [{"size": "3"}, {"size": "3"}, {"size": "672"}, {"size": "1"}]}}}, "dtype": {"type": "DT_HALF"}}}, {"name": "StatefulPartitionedCall/clean_plant_model_1/efficientnetv2-b0_1/block5c_bn_1/batchnorm/mul", "op": "Const", "attr": {"value": {"tensor": {"dtype": "DT_FLOAT", "tensorShape": {"dim": [{"size": "1"}, {"size": "1"}, {"size": "1"}, {"size": "672"}]}}}, "dtype": {"type": "DT_FLOAT"}}}, {"name": "StatefulPartitionedCall/clean_plant_model_1/efficientnetv2-b0_1/block5c_bn_1/batchnorm/sub", "op": "Const", "attr": {"value": {"tensor": {"dtype": "DT_FLOAT", "tensorShape": {"dim": [{"size": "1"}, {"size": "1"}, {"size": "1"}, {"size": "672"}]}}}, "dtype": {"type": "DT_FLOAT"}}}, {"name": "StatefulPartitionedCall/clean_plant_model_1/efficientnetv2-b0_1/block5c_se_squeeze_1/Mean/reduction_indices", "op": "Const", "attr": {"value": {"tensor": {"dtype": "DT_INT32", "tensorShape": {"dim": [{"size": "2"}]}}}, "dtype": {"type": "DT_INT32"}}}, {"name": "StatefulPartitionedCall/clean_plant_model_1/efficientnetv2-b0_1/block5c_se_reshape_1/strided_slice/stack", "op": "Const", "attr": {"value": {"tensor": {"dtype": "DT_INT32", "tensorShape": {"dim": [{"size": "1"}]}}}, "dtype": {"type": "DT_INT32"}}}, {"name": "StatefulPartitionedCall/clean_plant_model_1/efficientnetv2-b0_1/block5c_se_reshape_1/strided_slice/stack_1", "op": "Const", "attr": {"value": {"tensor": {"dtype": "DT_INT32", "tensorShape": {"dim": [{"size": "1"}]}}}, "dtype": {"type": "DT_INT32"}}}, {"name": "StatefulPartitionedCall/clean_plant_model_1/efficientnetv2-b0_1/block5c_se_reshape_1/strided_slice/stack_2", "op": "Const", "attr": {"value": {"tensor": {"dtype": "DT_INT32", "tensorShape": {"dim": [{"size": "1"}]}}}, "dtype": {"type": "DT_INT32"}}}, {"name": "StatefulPartitionedCall/clean_plant_model_1/efficientnetv2-b0_1/block5c_se_reshape_1/Reshape/shape/1", "op": "Const", "attr": {"value": {"tensor": {"dtype": "DT_INT32", "tensorShape": {}}}, "dtype": {"type": "DT_INT32"}}}, {"name": "StatefulPartitionedCall/clean_plant_model_1/efficientnetv2-b0_1/block5c_se_reshape_1/Reshape/shape/2", "op": "Const", "attr": {"value": {"tensor": {"dtype": "DT_INT32", "tensorShape": {}}}, "dtype": {"type": "DT_INT32"}}}, {"name": "StatefulPartitionedCall/clean_plant_model_1/efficientnetv2-b0_1/block5c_se_reshape_1/Reshape/shape/3", "op": "Const", "attr": {"value": {"tensor": {"dtype": "DT_INT32", "tensorShape": {}}}, "dtype": {"type": "DT_INT32"}}}, {"name": "StatefulPartitionedCall/clean_plant_model_1/efficientnetv2-b0_1/block5c_se_reduce_1/convolution/Cast", "op": "Const", "attr": {"value": {"tensor": {"dtype": "DT_HALF", "tensorShape": {"dim": [{"size": "1"}, {"size": "1"}, {"size": "672"}, {"size": "28"}]}}}, "dtype": {"type": "DT_HALF"}}}, {"name": "StatefulPartitionedCall/clean_plant_model_1/efficientnetv2-b0_1/block5c_se_reduce_1/Squeeze", "op": "Const", "attr": {"value": {"tensor": {"dtype": "DT_HALF", "tensorShape": {"dim": [{"size": "28"}]}}}, "dtype": {"type": "DT_HALF"}}}, {"name": "StatefulPartitionedCall/clean_plant_model_1/efficientnetv2-b0_1/block5c_se_expand_1/convolution/Cast", "op": "Const", "attr": {"value": {"tensor": {"dtype": "DT_HALF", "tensorShape": {"dim": [{"size": "1"}, {"size": "1"}, {"size": "28"}, {"size": "672"}]}}}, "dtype": {"type": "DT_HALF"}}}, {"name": "StatefulPartitionedCall/clean_plant_model_1/efficientnetv2-b0_1/block5c_se_expand_1/Squeeze", "op": "Const", "attr": {"value": {"tensor": {"dtype": "DT_HALF", "tensorShape": {"dim": [{"size": "672"}]}}}, "dtype": {"type": "DT_HALF"}}}, {"name": "StatefulPartitionedCall/clean_plant_model_1/efficientnetv2-b0_1/block5c_project_conv_1/convolution/Cast", "op": "Const", "attr": {"value": {"tensor": {"dtype": "DT_HALF", "tensorShape": {"dim": [{"size": "1"}, {"size": "1"}, {"size": "672"}, {"size": "112"}]}}}, "dtype": {"type": "DT_HALF"}}}, {"name": "StatefulPartitionedCall/clean_plant_model_1/efficientnetv2-b0_1/block5c_project_bn_1/batchnorm/mul", "op": "Const", "attr": {"value": {"tensor": {"dtype": "DT_FLOAT", "tensorShape": {"dim": [{"size": "1"}, {"size": "1"}, {"size": "1"}, {"size": "112"}]}}}, "dtype": {"type": "DT_FLOAT"}}}, {"name": "StatefulPartitionedCall/clean_plant_model_1/efficientnetv2-b0_1/block5c_project_bn_1/batchnorm/sub", "op": "Const", "attr": {"value": {"tensor": {"dtype": "DT_FLOAT", "tensorShape": {"dim": [{"size": "1"}, {"size": "1"}, {"size": "1"}, {"size": "112"}]}}}, "dtype": {"type": "DT_FLOAT"}}}, {"name": "StatefulPartitionedCall/clean_plant_model_1/efficientnetv2-b0_1/block5b_expand_conv_1/convolution/Cast", "op": "Const", "attr": {"value": {"tensor": {"dtype": "DT_HALF", "tensorShape": {"dim": [{"size": "1"}, {"size": "1"}, {"size": "112"}, {"size": "672"}]}}}, "dtype": {"type": "DT_HALF"}}}, {"name": "StatefulPartitionedCall/clean_plant_model_1/efficientnetv2-b0_1/block5b_expand_bn_1/batchnorm/mul", "op": "Const", "attr": {"value": {"tensor": {"dtype": "DT_FLOAT", "tensorShape": {"dim": [{"size": "1"}, {"size": "1"}, {"size": "1"}, {"size": "672"}]}}}, "dtype": {"type": "DT_FLOAT"}}}, {"name": "StatefulPartitionedCall/clean_plant_model_1/efficientnetv2-b0_1/block5b_expand_bn_1/batchnorm/sub", "op": "Const", "attr": {"value": {"tensor": {"dtype": "DT_FLOAT", "tensorShape": {"dim": [{"size": "1"}, {"size": "1"}, {"size": "1"}, {"size": "672"}]}}}, "dtype": {"type": "DT_FLOAT"}}}, {"name": "StatefulPartitionedCall/clean_plant_model_1/efficientnetv2-b0_1/block5b_dwconv2_1/depthwise/Cast", "op": "Const", "attr": {"value": {"tensor": {"dtype": "DT_HALF", "tensorShape": {"dim": [{"size": "3"}, {"size": "3"}, {"size": "672"}, {"size": "1"}]}}}, "dtype": {"type": "DT_HALF"}}}, {"name": "StatefulPartitionedCall/clean_plant_model_1/efficientnetv2-b0_1/block5b_bn_1/batchnorm/mul", "op": "Const", "attr": {"value": {"tensor": {"dtype": "DT_FLOAT", "tensorShape": {"dim": [{"size": "1"}, {"size": "1"}, {"size": "1"}, {"size": "672"}]}}}, "dtype": {"type": "DT_FLOAT"}}}, {"name": "StatefulPartitionedCall/clean_plant_model_1/efficientnetv2-b0_1/block5b_bn_1/batchnorm/sub", "op": "Const", "attr": {"value": {"tensor": {"dtype": "DT_FLOAT", "tensorShape": {"dim": [{"size": "1"}, {"size": "1"}, {"size": "1"}, {"size": "672"}]}}}, "dtype": {"type": "DT_FLOAT"}}}, {"name": "StatefulPartitionedCall/clean_plant_model_1/efficientnetv2-b0_1/block5b_se_squeeze_1/Mean/reduction_indices", "op": "Const", "attr": {"value": {"tensor": {"dtype": "DT_INT32", "tensorShape": {"dim": [{"size": "2"}]}}}, "dtype": {"type": "DT_INT32"}}}, {"name": "StatefulPartitionedCall/clean_plant_model_1/efficientnetv2-b0_1/block5b_se_reshape_1/strided_slice/stack", "op": "Const", "attr": {"value": {"tensor": {"dtype": "DT_INT32", "tensorShape": {"dim": [{"size": "1"}]}}}, "dtype": {"type": "DT_INT32"}}}, {"name": "StatefulPartitionedCall/clean_plant_model_1/efficientnetv2-b0_1/block5b_se_reshape_1/strided_slice/stack_1", "op": "Const", "attr": {"value": {"tensor": {"dtype": "DT_INT32", "tensorShape": {"dim": [{"size": "1"}]}}}, "dtype": {"type": "DT_INT32"}}}, {"name": "StatefulPartitionedCall/clean_plant_model_1/efficientnetv2-b0_1/block5b_se_reshape_1/strided_slice/stack_2", "op": "Const", "attr": {"value": {"tensor": {"dtype": "DT_INT32", "tensorShape": {"dim": [{"size": "1"}]}}}, "dtype": {"type": "DT_INT32"}}}, {"name": "StatefulPartitionedCall/clean_plant_model_1/efficientnetv2-b0_1/block5b_se_reshape_1/Reshape/shape/1", "op": "Const", "attr": {"value": {"tensor": {"dtype": "DT_INT32", "tensorShape": {}}}, "dtype": {"type": "DT_INT32"}}}, {"name": "StatefulPartitionedCall/clean_plant_model_1/efficientnetv2-b0_1/block5b_se_reshape_1/Reshape/shape/2", "op": "Const", "attr": {"value": {"tensor": {"dtype": "DT_INT32", "tensorShape": {}}}, "dtype": {"type": "DT_INT32"}}}, {"name": "StatefulPartitionedCall/clean_plant_model_1/efficientnetv2-b0_1/block5b_se_reshape_1/Reshape/shape/3", "op": "Const", "attr": {"value": {"tensor": {"dtype": "DT_INT32", "tensorShape": {}}}, "dtype": {"type": "DT_INT32"}}}, {"name": "StatefulPartitionedCall/clean_plant_model_1/efficientnetv2-b0_1/block5b_se_reduce_1/convolution/Cast", "op": "Const", "attr": {"value": {"tensor": {"dtype": "DT_HALF", "tensorShape": {"dim": [{"size": "1"}, {"size": "1"}, {"size": "672"}, {"size": "28"}]}}}, "dtype": {"type": "DT_HALF"}}}, {"name": "StatefulPartitionedCall/clean_plant_model_1/efficientnetv2-b0_1/block5b_se_reduce_1/Squeeze", "op": "Const", "attr": {"value": {"tensor": {"dtype": "DT_HALF", "tensorShape": {"dim": [{"size": "28"}]}}}, "dtype": {"type": "DT_HALF"}}}, {"name": "StatefulPartitionedCall/clean_plant_model_1/efficientnetv2-b0_1/block5b_se_expand_1/convolution/Cast", "op": "Const", "attr": {"value": {"tensor": {"dtype": "DT_HALF", "tensorShape": {"dim": [{"size": "1"}, {"size": "1"}, {"size": "28"}, {"size": "672"}]}}}, "dtype": {"type": "DT_HALF"}}}, {"name": "StatefulPartitionedCall/clean_plant_model_1/efficientnetv2-b0_1/block5b_se_expand_1/Squeeze", "op": "Const", "attr": {"value": {"tensor": {"dtype": "DT_HALF", "tensorShape": {"dim": [{"size": "672"}]}}}, "dtype": {"type": "DT_HALF"}}}, {"name": "StatefulPartitionedCall/clean_plant_model_1/efficientnetv2-b0_1/block5b_project_conv_1/convolution/Cast", "op": "Const", "attr": {"value": {"tensor": {"dtype": "DT_HALF", "tensorShape": {"dim": [{"size": "1"}, {"size": "1"}, {"size": "672"}, {"size": "112"}]}}}, "dtype": {"type": "DT_HALF"}}}, {"name": "StatefulPartitionedCall/clean_plant_model_1/efficientnetv2-b0_1/block5b_project_bn_1/batchnorm/mul", "op": "Const", "attr": {"value": {"tensor": {"dtype": "DT_FLOAT", "tensorShape": {"dim": [{"size": "1"}, {"size": "1"}, {"size": "1"}, {"size": "112"}]}}}, "dtype": {"type": "DT_FLOAT"}}}, {"name": "StatefulPartitionedCall/clean_plant_model_1/efficientnetv2-b0_1/block5b_project_bn_1/batchnorm/sub", "op": "Const", "attr": {"value": {"tensor": {"dtype": "DT_FLOAT", "tensorShape": {"dim": [{"size": "1"}, {"size": "1"}, {"size": "1"}, {"size": "112"}]}}}, "dtype": {"type": "DT_FLOAT"}}}, {"name": "StatefulPartitionedCall/clean_plant_model_1/efficientnetv2-b0_1/block4c_expand_conv_1/convolution/Cast", "op": "Const", "attr": {"value": {"tensor": {"dtype": "DT_HALF", "tensorShape": {"dim": [{"size": "1"}, {"size": "1"}, {"size": "96"}, {"size": "384"}]}}}, "dtype": {"type": "DT_HALF"}}}, {"name": "StatefulPartitionedCall/clean_plant_model_1/efficientnetv2-b0_1/block4c_expand_bn_1/batchnorm/mul", "op": "Const", "attr": {"value": {"tensor": {"dtype": "DT_FLOAT", "tensorShape": {"dim": [{"size": "1"}, {"size": "1"}, {"size": "1"}, {"size": "384"}]}}}, "dtype": {"type": "DT_FLOAT"}}}, {"name": "StatefulPartitionedCall/clean_plant_model_1/efficientnetv2-b0_1/block4c_expand_bn_1/batchnorm/sub", "op": "Const", "attr": {"value": {"tensor": {"dtype": "DT_FLOAT", "tensorShape": {"dim": [{"size": "1"}, {"size": "1"}, {"size": "1"}, {"size": "384"}]}}}, "dtype": {"type": "DT_FLOAT"}}}, {"name": "StatefulPartitionedCall/clean_plant_model_1/efficientnetv2-b0_1/block4c_dwconv2_1/depthwise/Cast", "op": "Const", "attr": {"value": {"tensor": {"dtype": "DT_HALF", "tensorShape": {"dim": [{"size": "3"}, {"size": "3"}, {"size": "384"}, {"size": "1"}]}}}, "dtype": {"type": "DT_HALF"}}}, {"name": "StatefulPartitionedCall/clean_plant_model_1/efficientnetv2-b0_1/block4c_bn_1/batchnorm/mul", "op": "Const", "attr": {"value": {"tensor": {"dtype": "DT_FLOAT", "tensorShape": {"dim": [{"size": "1"}, {"size": "1"}, {"size": "1"}, {"size": "384"}]}}}, "dtype": {"type": "DT_FLOAT"}}}, {"name": "StatefulPartitionedCall/clean_plant_model_1/efficientnetv2-b0_1/block4c_bn_1/batchnorm/sub", "op": "Const", "attr": {"value": {"tensor": {"dtype": "DT_FLOAT", "tensorShape": {"dim": [{"size": "1"}, {"size": "1"}, {"size": "1"}, {"size": "384"}]}}}, "dtype": {"type": "DT_FLOAT"}}}, {"name": "StatefulPartitionedCall/clean_plant_model_1/efficientnetv2-b0_1/block4c_se_squeeze_1/Mean/reduction_indices", "op": "Const", "attr": {"value": {"tensor": {"dtype": "DT_INT32", "tensorShape": {"dim": [{"size": "2"}]}}}, "dtype": {"type": "DT_INT32"}}}, {"name": "StatefulPartitionedCall/clean_plant_model_1/efficientnetv2-b0_1/block4c_se_reshape_1/strided_slice/stack", "op": "Const", "attr": {"value": {"tensor": {"dtype": "DT_INT32", "tensorShape": {"dim": [{"size": "1"}]}}}, "dtype": {"type": "DT_INT32"}}}, {"name": "StatefulPartitionedCall/clean_plant_model_1/efficientnetv2-b0_1/block4c_se_reshape_1/strided_slice/stack_1", "op": "Const", "attr": {"value": {"tensor": {"dtype": "DT_INT32", "tensorShape": {"dim": [{"size": "1"}]}}}, "dtype": {"type": "DT_INT32"}}}, {"name": "StatefulPartitionedCall/clean_plant_model_1/efficientnetv2-b0_1/block4c_se_reshape_1/strided_slice/stack_2", "op": "Const", "attr": {"value": {"tensor": {"dtype": "DT_INT32", "tensorShape": {"dim": [{"size": "1"}]}}}, "dtype": {"type": "DT_INT32"}}}, {"name": "StatefulPartitionedCall/clean_plant_model_1/efficientnetv2-b0_1/block4c_se_reshape_1/Reshape/shape/1", "op": "Const", "attr": {"value": {"tensor": {"dtype": "DT_INT32", "tensorShape": {}}}, "dtype": {"type": "DT_INT32"}}}, {"name": "StatefulPartitionedCall/clean_plant_model_1/efficientnetv2-b0_1/block4c_se_reshape_1/Reshape/shape/2", "op": "Const", "attr": {"value": {"tensor": {"dtype": "DT_INT32", "tensorShape": {}}}, "dtype": {"type": "DT_INT32"}}}, {"name": "StatefulPartitionedCall/clean_plant_model_1/efficientnetv2-b0_1/block4c_se_reshape_1/Reshape/shape/3", "op": "Const", "attr": {"value": {"tensor": {"dtype": "DT_INT32", "tensorShape": {}}}, "dtype": {"type": "DT_INT32"}}}, {"name": "StatefulPartitionedCall/clean_plant_model_1/efficientnetv2-b0_1/block4c_se_reduce_1/convolution/Cast", "op": "Const", "attr": {"value": {"tensor": {"dtype": "DT_HALF", "tensorShape": {"dim": [{"size": "1"}, {"size": "1"}, {"size": "384"}, {"size": "24"}]}}}, "dtype": {"type": "DT_HALF"}}}, {"name": "StatefulPartitionedCall/clean_plant_model_1/efficientnetv2-b0_1/block4c_se_reduce_1/Squeeze", "op": "Const", "attr": {"value": {"tensor": {"dtype": "DT_HALF", "tensorShape": {"dim": [{"size": "24"}]}}}, "dtype": {"type": "DT_HALF"}}}, {"name": "StatefulPartitionedCall/clean_plant_model_1/efficientnetv2-b0_1/block4c_se_expand_1/convolution/Cast", "op": "Const", "attr": {"value": {"tensor": {"dtype": "DT_HALF", "tensorShape": {"dim": [{"size": "1"}, {"size": "1"}, {"size": "24"}, {"size": "384"}]}}}, "dtype": {"type": "DT_HALF"}}}, {"name": "StatefulPartitionedCall/clean_plant_model_1/efficientnetv2-b0_1/block4c_se_expand_1/Squeeze", "op": "Const", "attr": {"value": {"tensor": {"dtype": "DT_HALF", "tensorShape": {"dim": [{"size": "384"}]}}}, "dtype": {"type": "DT_HALF"}}}, {"name": "StatefulPartitionedCall/clean_plant_model_1/efficientnetv2-b0_1/block4c_project_conv_1/convolution/Cast", "op": "Const", "attr": {"value": {"tensor": {"dtype": "DT_HALF", "tensorShape": {"dim": [{"size": "1"}, {"size": "1"}, {"size": "384"}, {"size": "96"}]}}}, "dtype": {"type": "DT_HALF"}}}, {"name": "StatefulPartitionedCall/clean_plant_model_1/efficientnetv2-b0_1/block4c_project_bn_1/batchnorm/mul", "op": "Const", "attr": {"value": {"tensor": {"dtype": "DT_FLOAT", "tensorShape": {"dim": [{"size": "1"}, {"size": "1"}, {"size": "1"}, {"size": "96"}]}}}, "dtype": {"type": "DT_FLOAT"}}}, {"name": "StatefulPartitionedCall/clean_plant_model_1/efficientnetv2-b0_1/block4c_project_bn_1/batchnorm/sub", "op": "Const", "attr": {"value": {"tensor": {"dtype": "DT_FLOAT", "tensorShape": {"dim": [{"size": "1"}, {"size": "1"}, {"size": "1"}, {"size": "96"}]}}}, "dtype": {"type": "DT_FLOAT"}}}, {"name": "StatefulPartitionedCall/clean_plant_model_1/efficientnetv2-b0_1/block4b_expand_conv_1/convolution/Cast", "op": "Const", "attr": {"value": {"tensor": {"dtype": "DT_HALF", "tensorShape": {"dim": [{"size": "1"}, {"size": "1"}, {"size": "96"}, {"size": "384"}]}}}, "dtype": {"type": "DT_HALF"}}}, {"name": "StatefulPartitionedCall/clean_plant_model_1/efficientnetv2-b0_1/block4b_expand_bn_1/batchnorm/mul", "op": "Const", "attr": {"value": {"tensor": {"dtype": "DT_FLOAT", "tensorShape": {"dim": [{"size": "1"}, {"size": "1"}, {"size": "1"}, {"size": "384"}]}}}, "dtype": {"type": "DT_FLOAT"}}}, {"name": "StatefulPartitionedCall/clean_plant_model_1/efficientnetv2-b0_1/block4b_expand_bn_1/batchnorm/sub", "op": "Const", "attr": {"value": {"tensor": {"dtype": "DT_FLOAT", "tensorShape": {"dim": [{"size": "1"}, {"size": "1"}, {"size": "1"}, {"size": "384"}]}}}, "dtype": {"type": "DT_FLOAT"}}}, {"name": "StatefulPartitionedCall/clean_plant_model_1/efficientnetv2-b0_1/block4b_dwconv2_1/depthwise/Cast", "op": "Const", "attr": {"value": {"tensor": {"dtype": "DT_HALF", "tensorShape": {"dim": [{"size": "3"}, {"size": "3"}, {"size": "384"}, {"size": "1"}]}}}, "dtype": {"type": "DT_HALF"}}}, {"name": "StatefulPartitionedCall/clean_plant_model_1/efficientnetv2-b0_1/block4b_bn_1/batchnorm/mul", "op": "Const", "attr": {"value": {"tensor": {"dtype": "DT_FLOAT", "tensorShape": {"dim": [{"size": "1"}, {"size": "1"}, {"size": "1"}, {"size": "384"}]}}}, "dtype": {"type": "DT_FLOAT"}}}, {"name": "StatefulPartitionedCall/clean_plant_model_1/efficientnetv2-b0_1/block4b_bn_1/batchnorm/sub", "op": "Const", "attr": {"value": {"tensor": {"dtype": "DT_FLOAT", "tensorShape": {"dim": [{"size": "1"}, {"size": "1"}, {"size": "1"}, {"size": "384"}]}}}, "dtype": {"type": "DT_FLOAT"}}}, {"name": "StatefulPartitionedCall/clean_plant_model_1/efficientnetv2-b0_1/block4b_se_squeeze_1/Mean/reduction_indices", "op": "Const", "attr": {"value": {"tensor": {"dtype": "DT_INT32", "tensorShape": {"dim": [{"size": "2"}]}}}, "dtype": {"type": "DT_INT32"}}}, {"name": "StatefulPartitionedCall/clean_plant_model_1/efficientnetv2-b0_1/block4b_se_reshape_1/strided_slice/stack", "op": "Const", "attr": {"value": {"tensor": {"dtype": "DT_INT32", "tensorShape": {"dim": [{"size": "1"}]}}}, "dtype": {"type": "DT_INT32"}}}, {"name": "StatefulPartitionedCall/clean_plant_model_1/efficientnetv2-b0_1/block4b_se_reshape_1/strided_slice/stack_1", "op": "Const", "attr": {"value": {"tensor": {"dtype": "DT_INT32", "tensorShape": {"dim": [{"size": "1"}]}}}, "dtype": {"type": "DT_INT32"}}}, {"name": "StatefulPartitionedCall/clean_plant_model_1/efficientnetv2-b0_1/block4b_se_reshape_1/strided_slice/stack_2", "op": "Const", "attr": {"value": {"tensor": {"dtype": "DT_INT32", "tensorShape": {"dim": [{"size": "1"}]}}}, "dtype": {"type": "DT_INT32"}}}, {"name": "StatefulPartitionedCall/clean_plant_model_1/efficientnetv2-b0_1/block4b_se_reshape_1/Reshape/shape/1", "op": "Const", "attr": {"value": {"tensor": {"dtype": "DT_INT32", "tensorShape": {}}}, "dtype": {"type": "DT_INT32"}}}, {"name": "StatefulPartitionedCall/clean_plant_model_1/efficientnetv2-b0_1/block4b_se_reshape_1/Reshape/shape/2", "op": "Const", "attr": {"value": {"tensor": {"dtype": "DT_INT32", "tensorShape": {}}}, "dtype": {"type": "DT_INT32"}}}, {"name": "StatefulPartitionedCall/clean_plant_model_1/efficientnetv2-b0_1/block4b_se_reshape_1/Reshape/shape/3", "op": "Const", "attr": {"value": {"tensor": {"dtype": "DT_INT32", "tensorShape": {}}}, "dtype": {"type": "DT_INT32"}}}, {"name": "StatefulPartitionedCall/clean_plant_model_1/efficientnetv2-b0_1/block4b_se_reduce_1/convolution/Cast", "op": "Const", "attr": {"value": {"tensor": {"dtype": "DT_HALF", "tensorShape": {"dim": [{"size": "1"}, {"size": "1"}, {"size": "384"}, {"size": "24"}]}}}, "dtype": {"type": "DT_HALF"}}}, {"name": "StatefulPartitionedCall/clean_plant_model_1/efficientnetv2-b0_1/block4b_se_reduce_1/Squeeze", "op": "Const", "attr": {"value": {"tensor": {"dtype": "DT_HALF", "tensorShape": {"dim": [{"size": "24"}]}}}, "dtype": {"type": "DT_HALF"}}}, {"name": "StatefulPartitionedCall/clean_plant_model_1/efficientnetv2-b0_1/block4b_se_expand_1/convolution/Cast", "op": "Const", "attr": {"value": {"tensor": {"dtype": "DT_HALF", "tensorShape": {"dim": [{"size": "1"}, {"size": "1"}, {"size": "24"}, {"size": "384"}]}}}, "dtype": {"type": "DT_HALF"}}}, {"name": "StatefulPartitionedCall/clean_plant_model_1/efficientnetv2-b0_1/block4b_se_expand_1/Squeeze", "op": "Const", "attr": {"value": {"tensor": {"dtype": "DT_HALF", "tensorShape": {"dim": [{"size": "384"}]}}}, "dtype": {"type": "DT_HALF"}}}, {"name": "StatefulPartitionedCall/clean_plant_model_1/efficientnetv2-b0_1/block4b_project_conv_1/convolution/Cast", "op": "Const", "attr": {"value": {"tensor": {"dtype": "DT_HALF", "tensorShape": {"dim": [{"size": "1"}, {"size": "1"}, {"size": "384"}, {"size": "96"}]}}}, "dtype": {"type": "DT_HALF"}}}, {"name": "StatefulPartitionedCall/clean_plant_model_1/efficientnetv2-b0_1/block4b_project_bn_1/batchnorm/mul", "op": "Const", "attr": {"value": {"tensor": {"dtype": "DT_FLOAT", "tensorShape": {"dim": [{"size": "1"}, {"size": "1"}, {"size": "1"}, {"size": "96"}]}}}, "dtype": {"type": "DT_FLOAT"}}}, {"name": "StatefulPartitionedCall/clean_plant_model_1/efficientnetv2-b0_1/block4b_project_bn_1/batchnorm/sub", "op": "Const", "attr": {"value": {"tensor": {"dtype": "DT_FLOAT", "tensorShape": {"dim": [{"size": "1"}, {"size": "1"}, {"size": "1"}, {"size": "96"}]}}}, "dtype": {"type": "DT_FLOAT"}}}, {"name": "StatefulPartitionedCall/clean_plant_model_1/efficientnetv2-b0_1/block3b_expand_conv_1/convolution/Cast", "op": "Const", "attr": {"value": {"tensor": {"dtype": "DT_HALF", "tensorShape": {"dim": [{"size": "3"}, {"size": "3"}, {"size": "48"}, {"size": "192"}]}}}, "dtype": {"type": "DT_HALF"}}}, {"name": "StatefulPartitionedCall/clean_plant_model_1/efficientnetv2-b0_1/block3b_expand_bn_1/batchnorm/mul", "op": "Const", "attr": {"value": {"tensor": {"dtype": "DT_FLOAT", "tensorShape": {"dim": [{"size": "1"}, {"size": "1"}, {"size": "1"}, {"size": "192"}]}}}, "dtype": {"type": "DT_FLOAT"}}}, {"name": "StatefulPartitionedCall/clean_plant_model_1/efficientnetv2-b0_1/block3b_expand_bn_1/batchnorm/sub", "op": "Const", "attr": {"value": {"tensor": {"dtype": "DT_FLOAT", "tensorShape": {"dim": [{"size": "1"}, {"size": "1"}, {"size": "1"}, {"size": "192"}]}}}, "dtype": {"type": "DT_FLOAT"}}}, {"name": "StatefulPartitionedCall/clean_plant_model_1/efficientnetv2-b0_1/block3b_project_conv_1/convolution/Cast", "op": "Const", "attr": {"value": {"tensor": {"dtype": "DT_HALF", "tensorShape": {"dim": [{"size": "1"}, {"size": "1"}, {"size": "192"}, {"size": "48"}]}}}, "dtype": {"type": "DT_HALF"}}}, {"name": "StatefulPartitionedCall/clean_plant_model_1/efficientnetv2-b0_1/block3b_project_bn_1/batchnorm/mul", "op": "Const", "attr": {"value": {"tensor": {"dtype": "DT_FLOAT", "tensorShape": {"dim": [{"size": "1"}, {"size": "1"}, {"size": "1"}, {"size": "48"}]}}}, "dtype": {"type": "DT_FLOAT"}}}, {"name": "StatefulPartitionedCall/clean_plant_model_1/efficientnetv2-b0_1/block3b_project_bn_1/batchnorm/sub", "op": "Const", "attr": {"value": {"tensor": {"dtype": "DT_FLOAT", "tensorShape": {"dim": [{"size": "1"}, {"size": "1"}, {"size": "1"}, {"size": "48"}]}}}, "dtype": {"type": "DT_FLOAT"}}}, {"name": "StatefulPartitionedCall/clean_plant_model_1/efficientnetv2-b0_1/block2b_expand_conv_1/convolution/Cast", "op": "Const", "attr": {"value": {"tensor": {"dtype": "DT_HALF", "tensorShape": {"dim": [{"size": "3"}, {"size": "3"}, {"size": "32"}, {"size": "128"}]}}}, "dtype": {"type": "DT_HALF"}}}, {"name": "StatefulPartitionedCall/clean_plant_model_1/efficientnetv2-b0_1/block2b_expand_bn_1/batchnorm/mul", "op": "Const", "attr": {"value": {"tensor": {"dtype": "DT_FLOAT", "tensorShape": {"dim": [{"size": "1"}, {"size": "1"}, {"size": "1"}, {"size": "128"}]}}}, "dtype": {"type": "DT_FLOAT"}}}, {"name": "StatefulPartitionedCall/clean_plant_model_1/efficientnetv2-b0_1/block2b_expand_bn_1/batchnorm/sub", "op": "Const", "attr": {"value": {"tensor": {"dtype": "DT_FLOAT", "tensorShape": {"dim": [{"size": "1"}, {"size": "1"}, {"size": "1"}, {"size": "128"}]}}}, "dtype": {"type": "DT_FLOAT"}}}, {"name": "StatefulPartitionedCall/clean_plant_model_1/efficientnetv2-b0_1/block2b_project_conv_1/convolution/Cast", "op": "Const", "attr": {"value": {"tensor": {"dtype": "DT_HALF", "tensorShape": {"dim": [{"size": "1"}, {"size": "1"}, {"size": "128"}, {"size": "32"}]}}}, "dtype": {"type": "DT_HALF"}}}, {"name": "StatefulPartitionedCall/clean_plant_model_1/efficientnetv2-b0_1/block2b_project_bn_1/batchnorm/mul", "op": "Const", "attr": {"value": {"tensor": {"dtype": "DT_FLOAT", "tensorShape": {"dim": [{"size": "1"}, {"size": "1"}, {"size": "1"}, {"size": "32"}]}}}, "dtype": {"type": "DT_FLOAT"}}}, {"name": "StatefulPartitionedCall/clean_plant_model_1/efficientnetv2-b0_1/block2b_project_bn_1/batchnorm/sub", "op": "Const", "attr": {"value": {"tensor": {"dtype": "DT_FLOAT", "tensorShape": {"dim": [{"size": "1"}, {"size": "1"}, {"size": "1"}, {"size": "32"}]}}}, "dtype": {"type": "DT_FLOAT"}}}, {"name": "StatefulPartitionedCall/clean_plant_model_1/efficientnetv2-b0_1/rescaling_1/Cast", "op": "Const", "attr": {"value": {"tensor": {"dtype": "DT_HALF", "tensorShape": {}}}, "dtype": {"type": "DT_HALF"}}}, {"name": "StatefulPartitionedCall/clean_plant_model_1/efficientnetv2-b0_1/rescaling_1/Cast_1", "op": "Const", "attr": {"value": {"tensor": {"dtype": "DT_HALF", "tensorShape": {}}}, "dtype": {"type": "DT_HALF"}}}, {"name": "unknown", "op": "Const", "attr": {"value": {"tensor": {"dtype": "DT_HALF", "tensorShape": {"dim": [{"size": "1"}, {"size": "1"}, {"size": "1"}, {"size": "3"}]}}}, "dtype": {"type": "DT_HALF"}}}, {"name": "ConstantFolding/StatefulPartitionedCall/clean_plant_model_1/efficientnetv2-b0_1/normalization_1/truediv_recip", "op": "Const", "attr": {"value": {"tensor": {"dtype": "DT_HALF", "tensorShape": {"dim": [{"size": "1"}, {"size": "1"}, {"size": "1"}, {"size": "3"}]}}}, "dtype": {"type": "DT_HALF"}}}, {"name": "StatefulPartitionedCall/clean_plant_model_1/efficientnetv2-b0_1/stem_conv_1/convolution/Cast", "op": "Const", "attr": {"value": {"tensor": {"dtype": "DT_HALF", "tensorShape": {"dim": [{"size": "3"}, {"size": "3"}, {"size": "3"}, {"size": "32"}]}}}, "dtype": {"type": "DT_HALF"}}}, {"name": "StatefulPartitionedCall/clean_plant_model_1/efficientnetv2-b0_1/stem_bn_1/batchnorm/mul", "op": "Const", "attr": {"value": {"tensor": {"dtype": "DT_FLOAT", "tensorShape": {"dim": [{"size": "1"}, {"size": "1"}, {"size": "1"}, {"size": "32"}]}}}, "dtype": {"type": "DT_FLOAT"}}}, {"name": "StatefulPartitionedCall/clean_plant_model_1/efficientnetv2-b0_1/stem_bn_1/batchnorm/sub", "op": "Const", "attr": {"value": {"tensor": {"dtype": "DT_FLOAT", "tensorShape": {"dim": [{"size": "1"}, {"size": "1"}, {"size": "1"}, {"size": "32"}]}}}, "dtype": {"type": "DT_FLOAT"}}}, {"name": "StatefulPartitionedCall/clean_plant_model_1/efficientnetv2-b0_1/block1a_project_conv_1/convolution/Cast", "op": "Const", "attr": {"value": {"tensor": {"dtype": "DT_HALF", "tensorShape": {"dim": [{"size": "3"}, {"size": "3"}, {"size": "32"}, {"size": "16"}]}}}, "dtype": {"type": "DT_HALF"}}}, {"name": "StatefulPartitionedCall/clean_plant_model_1/efficientnetv2-b0_1/block1a_project_bn_1/batchnorm/mul", "op": "Const", "attr": {"value": {"tensor": {"dtype": "DT_FLOAT", "tensorShape": {"dim": [{"size": "1"}, {"size": "1"}, {"size": "1"}, {"size": "16"}]}}}, "dtype": {"type": "DT_FLOAT"}}}, {"name": "StatefulPartitionedCall/clean_plant_model_1/efficientnetv2-b0_1/block1a_project_bn_1/batchnorm/sub", "op": "Const", "attr": {"value": {"tensor": {"dtype": "DT_FLOAT", "tensorShape": {"dim": [{"size": "1"}, {"size": "1"}, {"size": "1"}, {"size": "16"}]}}}, "dtype": {"type": "DT_FLOAT"}}}, {"name": "StatefulPartitionedCall/clean_plant_model_1/efficientnetv2-b0_1/block2a_expand_conv_1/convolution/Cast", "op": "Const", "attr": {"value": {"tensor": {"dtype": "DT_HALF", "tensorShape": {"dim": [{"size": "3"}, {"size": "3"}, {"size": "16"}, {"size": "64"}]}}}, "dtype": {"type": "DT_HALF"}}}, {"name": "StatefulPartitionedCall/clean_plant_model_1/efficientnetv2-b0_1/block2a_expand_bn_1/batchnorm/mul", "op": "Const", "attr": {"value": {"tensor": {"dtype": "DT_FLOAT", "tensorShape": {"dim": [{"size": "1"}, {"size": "1"}, {"size": "1"}, {"size": "64"}]}}}, "dtype": {"type": "DT_FLOAT"}}}, {"name": "StatefulPartitionedCall/clean_plant_model_1/efficientnetv2-b0_1/block2a_expand_bn_1/batchnorm/sub", "op": "Const", "attr": {"value": {"tensor": {"dtype": "DT_FLOAT", "tensorShape": {"dim": [{"size": "1"}, {"size": "1"}, {"size": "1"}, {"size": "64"}]}}}, "dtype": {"type": "DT_FLOAT"}}}, {"name": "StatefulPartitionedCall/clean_plant_model_1/efficientnetv2-b0_1/block2a_project_conv_1/convolution/Cast", "op": "Const", "attr": {"value": {"tensor": {"dtype": "DT_HALF", "tensorShape": {"dim": [{"size": "1"}, {"size": "1"}, {"size": "64"}, {"size": "32"}]}}}, "dtype": {"type": "DT_HALF"}}}, {"name": "StatefulPartitionedCall/clean_plant_model_1/efficientnetv2-b0_1/block2a_project_bn_1/batchnorm/mul", "op": "Const", "attr": {"value": {"tensor": {"dtype": "DT_FLOAT", "tensorShape": {"dim": [{"size": "1"}, {"size": "1"}, {"size": "1"}, {"size": "32"}]}}}, "dtype": {"type": "DT_FLOAT"}}}, {"name": "StatefulPartitionedCall/clean_plant_model_1/efficientnetv2-b0_1/block2a_project_bn_1/batchnorm/sub", "op": "Const", "attr": {"value": {"tensor": {"dtype": "DT_FLOAT", "tensorShape": {"dim": [{"size": "1"}, {"size": "1"}, {"size": "1"}, {"size": "32"}]}}}, "dtype": {"type": "DT_FLOAT"}}}, {"name": "StatefulPartitionedCall/clean_plant_model_1/efficientnetv2-b0_1/block3a_expand_conv_1/convolution/Cast", "op": "Const", "attr": {"value": {"tensor": {"dtype": "DT_HALF", "tensorShape": {"dim": [{"size": "3"}, {"size": "3"}, {"size": "32"}, {"size": "128"}]}}}, "dtype": {"type": "DT_HALF"}}}, {"name": "StatefulPartitionedCall/clean_plant_model_1/efficientnetv2-b0_1/block3a_expand_bn_1/batchnorm/mul", "op": "Const", "attr": {"value": {"tensor": {"dtype": "DT_FLOAT", "tensorShape": {"dim": [{"size": "1"}, {"size": "1"}, {"size": "1"}, {"size": "128"}]}}}, "dtype": {"type": "DT_FLOAT"}}}, {"name": "StatefulPartitionedCall/clean_plant_model_1/efficientnetv2-b0_1/block3a_expand_bn_1/batchnorm/sub", "op": "Const", "attr": {"value": {"tensor": {"dtype": "DT_FLOAT", "tensorShape": {"dim": [{"size": "1"}, {"size": "1"}, {"size": "1"}, {"size": "128"}]}}}, "dtype": {"type": "DT_FLOAT"}}}, {"name": "StatefulPartitionedCall/clean_plant_model_1/efficientnetv2-b0_1/block3a_project_conv_1/convolution/Cast", "op": "Const", "attr": {"value": {"tensor": {"dtype": "DT_HALF", "tensorShape": {"dim": [{"size": "1"}, {"size": "1"}, {"size": "128"}, {"size": "48"}]}}}, "dtype": {"type": "DT_HALF"}}}, {"name": "StatefulPartitionedCall/clean_plant_model_1/efficientnetv2-b0_1/block3a_project_bn_1/batchnorm/mul", "op": "Const", "attr": {"value": {"tensor": {"dtype": "DT_FLOAT", "tensorShape": {"dim": [{"size": "1"}, {"size": "1"}, {"size": "1"}, {"size": "48"}]}}}, "dtype": {"type": "DT_FLOAT"}}}, {"name": "StatefulPartitionedCall/clean_plant_model_1/efficientnetv2-b0_1/block3a_project_bn_1/batchnorm/sub", "op": "Const", "attr": {"value": {"tensor": {"dtype": "DT_FLOAT", "tensorShape": {"dim": [{"size": "1"}, {"size": "1"}, {"size": "1"}, {"size": "48"}]}}}, "dtype": {"type": "DT_FLOAT"}}}, {"name": "StatefulPartitionedCall/clean_plant_model_1/efficientnetv2-b0_1/block4a_expand_conv_1/convolution/Cast", "op": "Const", "attr": {"value": {"tensor": {"dtype": "DT_HALF", "tensorShape": {"dim": [{"size": "1"}, {"size": "1"}, {"size": "48"}, {"size": "192"}]}}}, "dtype": {"type": "DT_HALF"}}}, {"name": "StatefulPartitionedCall/clean_plant_model_1/efficientnetv2-b0_1/block4a_expand_bn_1/batchnorm/mul", "op": "Const", "attr": {"value": {"tensor": {"dtype": "DT_FLOAT", "tensorShape": {"dim": [{"size": "1"}, {"size": "1"}, {"size": "1"}, {"size": "192"}]}}}, "dtype": {"type": "DT_FLOAT"}}}, {"name": "StatefulPartitionedCall/clean_plant_model_1/efficientnetv2-b0_1/block4a_expand_bn_1/batchnorm/sub", "op": "Const", "attr": {"value": {"tensor": {"dtype": "DT_FLOAT", "tensorShape": {"dim": [{"size": "1"}, {"size": "1"}, {"size": "1"}, {"size": "192"}]}}}, "dtype": {"type": "DT_FLOAT"}}}, {"name": "StatefulPartitionedCall/clean_plant_model_1/efficientnetv2-b0_1/block4a_dwconv2_1/depthwise/Cast", "op": "Const", "attr": {"value": {"tensor": {"dtype": "DT_HALF", "tensorShape": {"dim": [{"size": "3"}, {"size": "3"}, {"size": "192"}, {"size": "1"}]}}}, "dtype": {"type": "DT_HALF"}}}, {"name": "StatefulPartitionedCall/clean_plant_model_1/efficientnetv2-b0_1/block4a_bn_1/batchnorm/mul", "op": "Const", "attr": {"value": {"tensor": {"dtype": "DT_FLOAT", "tensorShape": {"dim": [{"size": "1"}, {"size": "1"}, {"size": "1"}, {"size": "192"}]}}}, "dtype": {"type": "DT_FLOAT"}}}, {"name": "StatefulPartitionedCall/clean_plant_model_1/efficientnetv2-b0_1/block4a_bn_1/batchnorm/sub", "op": "Const", "attr": {"value": {"tensor": {"dtype": "DT_FLOAT", "tensorShape": {"dim": [{"size": "1"}, {"size": "1"}, {"size": "1"}, {"size": "192"}]}}}, "dtype": {"type": "DT_FLOAT"}}}, {"name": "StatefulPartitionedCall/clean_plant_model_1/efficientnetv2-b0_1/block4a_se_squeeze_1/Mean/reduction_indices", "op": "Const", "attr": {"value": {"tensor": {"dtype": "DT_INT32", "tensorShape": {"dim": [{"size": "2"}]}}}, "dtype": {"type": "DT_INT32"}}}, {"name": "StatefulPartitionedCall/clean_plant_model_1/efficientnetv2-b0_1/block4a_se_reshape_1/strided_slice/stack", "op": "Const", "attr": {"value": {"tensor": {"dtype": "DT_INT32", "tensorShape": {"dim": [{"size": "1"}]}}}, "dtype": {"type": "DT_INT32"}}}, {"name": "StatefulPartitionedCall/clean_plant_model_1/efficientnetv2-b0_1/block4a_se_reshape_1/strided_slice/stack_1", "op": "Const", "attr": {"value": {"tensor": {"dtype": "DT_INT32", "tensorShape": {"dim": [{"size": "1"}]}}}, "dtype": {"type": "DT_INT32"}}}, {"name": "StatefulPartitionedCall/clean_plant_model_1/efficientnetv2-b0_1/block4a_se_reshape_1/strided_slice/stack_2", "op": "Const", "attr": {"value": {"tensor": {"dtype": "DT_INT32", "tensorShape": {"dim": [{"size": "1"}]}}}, "dtype": {"type": "DT_INT32"}}}, {"name": "StatefulPartitionedCall/clean_plant_model_1/efficientnetv2-b0_1/block4a_se_reshape_1/Reshape/shape/1", "op": "Const", "attr": {"value": {"tensor": {"dtype": "DT_INT32", "tensorShape": {}}}, "dtype": {"type": "DT_INT32"}}}, {"name": "StatefulPartitionedCall/clean_plant_model_1/efficientnetv2-b0_1/block4a_se_reshape_1/Reshape/shape/2", "op": "Const", "attr": {"value": {"tensor": {"dtype": "DT_INT32", "tensorShape": {}}}, "dtype": {"type": "DT_INT32"}}}, {"name": "StatefulPartitionedCall/clean_plant_model_1/efficientnetv2-b0_1/block4a_se_reshape_1/Reshape/shape/3", "op": "Const", "attr": {"value": {"tensor": {"dtype": "DT_INT32", "tensorShape": {}}}, "dtype": {"type": "DT_INT32"}}}, {"name": "StatefulPartitionedCall/clean_plant_model_1/efficientnetv2-b0_1/block4a_se_reduce_1/convolution/Cast", "op": "Const", "attr": {"value": {"tensor": {"dtype": "DT_HALF", "tensorShape": {"dim": [{"size": "1"}, {"size": "1"}, {"size": "192"}, {"size": "12"}]}}}, "dtype": {"type": "DT_HALF"}}}, {"name": "StatefulPartitionedCall/clean_plant_model_1/efficientnetv2-b0_1/block4a_se_reduce_1/Squeeze", "op": "Const", "attr": {"value": {"tensor": {"dtype": "DT_HALF", "tensorShape": {"dim": [{"size": "12"}]}}}, "dtype": {"type": "DT_HALF"}}}, {"name": "StatefulPartitionedCall/clean_plant_model_1/efficientnetv2-b0_1/block4a_se_expand_1/convolution/Cast", "op": "Const", "attr": {"value": {"tensor": {"dtype": "DT_HALF", "tensorShape": {"dim": [{"size": "1"}, {"size": "1"}, {"size": "12"}, {"size": "192"}]}}}, "dtype": {"type": "DT_HALF"}}}, {"name": "StatefulPartitionedCall/clean_plant_model_1/efficientnetv2-b0_1/block4a_se_expand_1/Squeeze", "op": "Const", "attr": {"value": {"tensor": {"dtype": "DT_HALF", "tensorShape": {"dim": [{"size": "192"}]}}}, "dtype": {"type": "DT_HALF"}}}, {"name": "StatefulPartitionedCall/clean_plant_model_1/efficientnetv2-b0_1/block4a_project_conv_1/convolution/Cast", "op": "Const", "attr": {"value": {"tensor": {"dtype": "DT_HALF", "tensorShape": {"dim": [{"size": "1"}, {"size": "1"}, {"size": "192"}, {"size": "96"}]}}}, "dtype": {"type": "DT_HALF"}}}, {"name": "StatefulPartitionedCall/clean_plant_model_1/efficientnetv2-b0_1/block4a_project_bn_1/batchnorm/mul", "op": "Const", "attr": {"value": {"tensor": {"dtype": "DT_FLOAT", "tensorShape": {"dim": [{"size": "1"}, {"size": "1"}, {"size": "1"}, {"size": "96"}]}}}, "dtype": {"type": "DT_FLOAT"}}}, {"name": "StatefulPartitionedCall/clean_plant_model_1/efficientnetv2-b0_1/block4a_project_bn_1/batchnorm/sub", "op": "Const", "attr": {"value": {"tensor": {"dtype": "DT_FLOAT", "tensorShape": {"dim": [{"size": "1"}, {"size": "1"}, {"size": "1"}, {"size": "96"}]}}}, "dtype": {"type": "DT_FLOAT"}}}, {"name": "StatefulPartitionedCall/clean_plant_model_1/efficientnetv2-b0_1/block5a_expand_conv_1/convolution/Cast", "op": "Const", "attr": {"value": {"tensor": {"dtype": "DT_HALF", "tensorShape": {"dim": [{"size": "1"}, {"size": "1"}, {"size": "96"}, {"size": "576"}]}}}, "dtype": {"type": "DT_HALF"}}}, {"name": "StatefulPartitionedCall/clean_plant_model_1/efficientnetv2-b0_1/block5a_expand_bn_1/batchnorm/mul", "op": "Const", "attr": {"value": {"tensor": {"dtype": "DT_FLOAT", "tensorShape": {"dim": [{"size": "1"}, {"size": "1"}, {"size": "1"}, {"size": "576"}]}}}, "dtype": {"type": "DT_FLOAT"}}}, {"name": "StatefulPartitionedCall/clean_plant_model_1/efficientnetv2-b0_1/block5a_expand_bn_1/batchnorm/sub", "op": "Const", "attr": {"value": {"tensor": {"dtype": "DT_FLOAT", "tensorShape": {"dim": [{"size": "1"}, {"size": "1"}, {"size": "1"}, {"size": "576"}]}}}, "dtype": {"type": "DT_FLOAT"}}}, {"name": "StatefulPartitionedCall/clean_plant_model_1/efficientnetv2-b0_1/block5a_dwconv2_1/depthwise/Cast", "op": "Const", "attr": {"value": {"tensor": {"dtype": "DT_HALF", "tensorShape": {"dim": [{"size": "3"}, {"size": "3"}, {"size": "576"}, {"size": "1"}]}}}, "dtype": {"type": "DT_HALF"}}}, {"name": "StatefulPartitionedCall/clean_plant_model_1/efficientnetv2-b0_1/block5a_bn_1/batchnorm/mul", "op": "Const", "attr": {"value": {"tensor": {"dtype": "DT_FLOAT", "tensorShape": {"dim": [{"size": "1"}, {"size": "1"}, {"size": "1"}, {"size": "576"}]}}}, "dtype": {"type": "DT_FLOAT"}}}, {"name": "StatefulPartitionedCall/clean_plant_model_1/efficientnetv2-b0_1/block5a_bn_1/batchnorm/sub", "op": "Const", "attr": {"value": {"tensor": {"dtype": "DT_FLOAT", "tensorShape": {"dim": [{"size": "1"}, {"size": "1"}, {"size": "1"}, {"size": "576"}]}}}, "dtype": {"type": "DT_FLOAT"}}}, {"name": "StatefulPartitionedCall/clean_plant_model_1/efficientnetv2-b0_1/block5a_se_squeeze_1/Mean/reduction_indices", "op": "Const", "attr": {"value": {"tensor": {"dtype": "DT_INT32", "tensorShape": {"dim": [{"size": "2"}]}}}, "dtype": {"type": "DT_INT32"}}}, {"name": "StatefulPartitionedCall/clean_plant_model_1/efficientnetv2-b0_1/block5a_se_reshape_1/strided_slice/stack", "op": "Const", "attr": {"value": {"tensor": {"dtype": "DT_INT32", "tensorShape": {"dim": [{"size": "1"}]}}}, "dtype": {"type": "DT_INT32"}}}, {"name": "StatefulPartitionedCall/clean_plant_model_1/efficientnetv2-b0_1/block5a_se_reshape_1/strided_slice/stack_1", "op": "Const", "attr": {"value": {"tensor": {"dtype": "DT_INT32", "tensorShape": {"dim": [{"size": "1"}]}}}, "dtype": {"type": "DT_INT32"}}}, {"name": "StatefulPartitionedCall/clean_plant_model_1/efficientnetv2-b0_1/block5a_se_reshape_1/strided_slice/stack_2", "op": "Const", "attr": {"value": {"tensor": {"dtype": "DT_INT32", "tensorShape": {"dim": [{"size": "1"}]}}}, "dtype": {"type": "DT_INT32"}}}, {"name": "StatefulPartitionedCall/clean_plant_model_1/efficientnetv2-b0_1/block5a_se_reshape_1/Reshape/shape/1", "op": "Const", "attr": {"value": {"tensor": {"dtype": "DT_INT32", "tensorShape": {}}}, "dtype": {"type": "DT_INT32"}}}, {"name": "StatefulPartitionedCall/clean_plant_model_1/efficientnetv2-b0_1/block5a_se_reshape_1/Reshape/shape/2", "op": "Const", "attr": {"value": {"tensor": {"dtype": "DT_INT32", "tensorShape": {}}}, "dtype": {"type": "DT_INT32"}}}, {"name": "StatefulPartitionedCall/clean_plant_model_1/efficientnetv2-b0_1/block5a_se_reshape_1/Reshape/shape/3", "op": "Const", "attr": {"value": {"tensor": {"dtype": "DT_INT32", "tensorShape": {}}}, "dtype": {"type": "DT_INT32"}}}, {"name": "StatefulPartitionedCall/clean_plant_model_1/efficientnetv2-b0_1/block5a_se_reduce_1/convolution/Cast", "op": "Const", "attr": {"value": {"tensor": {"dtype": "DT_HALF", "tensorShape": {"dim": [{"size": "1"}, {"size": "1"}, {"size": "576"}, {"size": "24"}]}}}, "dtype": {"type": "DT_HALF"}}}, {"name": "StatefulPartitionedCall/clean_plant_model_1/efficientnetv2-b0_1/block5a_se_reduce_1/Squeeze", "op": "Const", "attr": {"value": {"tensor": {"dtype": "DT_HALF", "tensorShape": {"dim": [{"size": "24"}]}}}, "dtype": {"type": "DT_HALF"}}}, {"name": "StatefulPartitionedCall/clean_plant_model_1/efficientnetv2-b0_1/block5a_se_expand_1/convolution/Cast", "op": "Const", "attr": {"value": {"tensor": {"dtype": "DT_HALF", "tensorShape": {"dim": [{"size": "1"}, {"size": "1"}, {"size": "24"}, {"size": "576"}]}}}, "dtype": {"type": "DT_HALF"}}}, {"name": "StatefulPartitionedCall/clean_plant_model_1/efficientnetv2-b0_1/block5a_se_expand_1/Squeeze", "op": "Const", "attr": {"value": {"tensor": {"dtype": "DT_HALF", "tensorShape": {"dim": [{"size": "576"}]}}}, "dtype": {"type": "DT_HALF"}}}, {"name": "StatefulPartitionedCall/clean_plant_model_1/efficientnetv2-b0_1/block5a_project_conv_1/convolution/Cast", "op": "Const", "attr": {"value": {"tensor": {"dtype": "DT_HALF", "tensorShape": {"dim": [{"size": "1"}, {"size": "1"}, {"size": "576"}, {"size": "112"}]}}}, "dtype": {"type": "DT_HALF"}}}, {"name": "StatefulPartitionedCall/clean_plant_model_1/efficientnetv2-b0_1/block5a_project_bn_1/batchnorm/mul", "op": "Const", "attr": {"value": {"tensor": {"dtype": "DT_FLOAT", "tensorShape": {"dim": [{"size": "1"}, {"size": "1"}, {"size": "1"}, {"size": "112"}]}}}, "dtype": {"type": "DT_FLOAT"}}}, {"name": "StatefulPartitionedCall/clean_plant_model_1/efficientnetv2-b0_1/block5a_project_bn_1/batchnorm/sub", "op": "Const", "attr": {"value": {"tensor": {"dtype": "DT_FLOAT", "tensorShape": {"dim": [{"size": "1"}, {"size": "1"}, {"size": "1"}, {"size": "112"}]}}}, "dtype": {"type": "DT_FLOAT"}}}, {"name": "StatefulPartitionedCall/clean_plant_model_1/efficientnetv2-b0_1/block6a_expand_conv_1/convolution/Cast", "op": "Const", "attr": {"value": {"tensor": {"dtype": "DT_HALF", "tensorShape": {"dim": [{"size": "1"}, {"size": "1"}, {"size": "112"}, {"size": "672"}]}}}, "dtype": {"type": "DT_HALF"}}}, {"name": "StatefulPartitionedCall/clean_plant_model_1/efficientnetv2-b0_1/block6a_expand_bn_1/batchnorm/mul", "op": "Const", "attr": {"value": {"tensor": {"dtype": "DT_FLOAT", "tensorShape": {"dim": [{"size": "1"}, {"size": "1"}, {"size": "1"}, {"size": "672"}]}}}, "dtype": {"type": "DT_FLOAT"}}}, {"name": "StatefulPartitionedCall/clean_plant_model_1/efficientnetv2-b0_1/block6a_expand_bn_1/batchnorm/sub", "op": "Const", "attr": {"value": {"tensor": {"dtype": "DT_FLOAT", "tensorShape": {"dim": [{"size": "1"}, {"size": "1"}, {"size": "1"}, {"size": "672"}]}}}, "dtype": {"type": "DT_FLOAT"}}}, {"name": "StatefulPartitionedCall/clean_plant_model_1/efficientnetv2-b0_1/block6a_dwconv2_1/depthwise/Cast", "op": "Const", "attr": {"value": {"tensor": {"dtype": "DT_HALF", "tensorShape": {"dim": [{"size": "3"}, {"size": "3"}, {"size": "672"}, {"size": "1"}]}}}, "dtype": {"type": "DT_HALF"}}}, {"name": "StatefulPartitionedCall/clean_plant_model_1/efficientnetv2-b0_1/block6a_bn_1/batchnorm/mul", "op": "Const", "attr": {"value": {"tensor": {"dtype": "DT_FLOAT", "tensorShape": {"dim": [{"size": "1"}, {"size": "1"}, {"size": "1"}, {"size": "672"}]}}}, "dtype": {"type": "DT_FLOAT"}}}, {"name": "StatefulPartitionedCall/clean_plant_model_1/efficientnetv2-b0_1/block6a_bn_1/batchnorm/sub", "op": "Const", "attr": {"value": {"tensor": {"dtype": "DT_FLOAT", "tensorShape": {"dim": [{"size": "1"}, {"size": "1"}, {"size": "1"}, {"size": "672"}]}}}, "dtype": {"type": "DT_FLOAT"}}}, {"name": "StatefulPartitionedCall/clean_plant_model_1/efficientnetv2-b0_1/block6a_se_squeeze_1/Mean/reduction_indices", "op": "Const", "attr": {"value": {"tensor": {"dtype": "DT_INT32", "tensorShape": {"dim": [{"size": "2"}]}}}, "dtype": {"type": "DT_INT32"}}}, {"name": "StatefulPartitionedCall/clean_plant_model_1/efficientnetv2-b0_1/block6a_se_reshape_1/strided_slice/stack", "op": "Const", "attr": {"value": {"tensor": {"dtype": "DT_INT32", "tensorShape": {"dim": [{"size": "1"}]}}}, "dtype": {"type": "DT_INT32"}}}, {"name": "StatefulPartitionedCall/clean_plant_model_1/efficientnetv2-b0_1/block6a_se_reshape_1/strided_slice/stack_1", "op": "Const", "attr": {"value": {"tensor": {"dtype": "DT_INT32", "tensorShape": {"dim": [{"size": "1"}]}}}, "dtype": {"type": "DT_INT32"}}}, {"name": "StatefulPartitionedCall/clean_plant_model_1/efficientnetv2-b0_1/block6a_se_reshape_1/strided_slice/stack_2", "op": "Const", "attr": {"value": {"tensor": {"dtype": "DT_INT32", "tensorShape": {"dim": [{"size": "1"}]}}}, "dtype": {"type": "DT_INT32"}}}, {"name": "StatefulPartitionedCall/clean_plant_model_1/efficientnetv2-b0_1/block6a_se_reshape_1/Reshape/shape/1", "op": "Const", "attr": {"value": {"tensor": {"dtype": "DT_INT32", "tensorShape": {}}}, "dtype": {"type": "DT_INT32"}}}, {"name": "StatefulPartitionedCall/clean_plant_model_1/efficientnetv2-b0_1/block6a_se_reshape_1/Reshape/shape/2", "op": "Const", "attr": {"value": {"tensor": {"dtype": "DT_INT32", "tensorShape": {}}}, "dtype": {"type": "DT_INT32"}}}, {"name": "StatefulPartitionedCall/clean_plant_model_1/efficientnetv2-b0_1/block6a_se_reshape_1/Reshape/shape/3", "op": "Const", "attr": {"value": {"tensor": {"dtype": "DT_INT32", "tensorShape": {}}}, "dtype": {"type": "DT_INT32"}}}, {"name": "StatefulPartitionedCall/clean_plant_model_1/efficientnetv2-b0_1/block6a_se_reduce_1/convolution/Cast", "op": "Const", "attr": {"value": {"tensor": {"dtype": "DT_HALF", "tensorShape": {"dim": [{"size": "1"}, {"size": "1"}, {"size": "672"}, {"size": "28"}]}}}, "dtype": {"type": "DT_HALF"}}}, {"name": "StatefulPartitionedCall/clean_plant_model_1/efficientnetv2-b0_1/block6a_se_reduce_1/Squeeze", "op": "Const", "attr": {"value": {"tensor": {"dtype": "DT_HALF", "tensorShape": {"dim": [{"size": "28"}]}}}, "dtype": {"type": "DT_HALF"}}}, {"name": "StatefulPartitionedCall/clean_plant_model_1/efficientnetv2-b0_1/block6a_se_expand_1/convolution/Cast", "op": "Const", "attr": {"value": {"tensor": {"dtype": "DT_HALF", "tensorShape": {"dim": [{"size": "1"}, {"size": "1"}, {"size": "28"}, {"size": "672"}]}}}, "dtype": {"type": "DT_HALF"}}}, {"name": "StatefulPartitionedCall/clean_plant_model_1/efficientnetv2-b0_1/block6a_se_expand_1/Squeeze", "op": "Const", "attr": {"value": {"tensor": {"dtype": "DT_HALF", "tensorShape": {"dim": [{"size": "672"}]}}}, "dtype": {"type": "DT_HALF"}}}, {"name": "StatefulPartitionedCall/clean_plant_model_1/efficientnetv2-b0_1/block6a_project_conv_1/convolution/Cast", "op": "Const", "attr": {"value": {"tensor": {"dtype": "DT_HALF", "tensorShape": {"dim": [{"size": "1"}, {"size": "1"}, {"size": "672"}, {"size": "192"}]}}}, "dtype": {"type": "DT_HALF"}}}, {"name": "StatefulPartitionedCall/clean_plant_model_1/efficientnetv2-b0_1/block6a_project_bn_1/batchnorm/mul", "op": "Const", "attr": {"value": {"tensor": {"dtype": "DT_FLOAT", "tensorShape": {"dim": [{"size": "1"}, {"size": "1"}, {"size": "1"}, {"size": "192"}]}}}, "dtype": {"type": "DT_FLOAT"}}}, {"name": "StatefulPartitionedCall/clean_plant_model_1/efficientnetv2-b0_1/block6a_project_bn_1/batchnorm/sub", "op": "Const", "attr": {"value": {"tensor": {"dtype": "DT_FLOAT", "tensorShape": {"dim": [{"size": "1"}, {"size": "1"}, {"size": "1"}, {"size": "192"}]}}}, "dtype": {"type": "DT_FLOAT"}}}, {"name": "StatefulPartitionedCall/clean_plant_model_1/efficientnetv2-b0_1/top_conv_1/convolution/Cast", "op": "Const", "attr": {"value": {"tensor": {"dtype": "DT_HALF", "tensorShape": {"dim": [{"size": "1"}, {"size": "1"}, {"size": "192"}, {"size": "1280"}]}}}, "dtype": {"type": "DT_HALF"}}}, {"name": "StatefulPartitionedCall/clean_plant_model_1/efficientnetv2-b0_1/top_bn_1/batchnorm/mul", "op": "Const", "attr": {"value": {"tensor": {"dtype": "DT_FLOAT", "tensorShape": {"dim": [{"size": "1"}, {"size": "1"}, {"size": "1"}, {"size": "1280"}]}}}, "dtype": {"type": "DT_FLOAT"}}}, {"name": "StatefulPartitionedCall/clean_plant_model_1/efficientnetv2-b0_1/top_bn_1/batchnorm/sub", "op": "Const", "attr": {"value": {"tensor": {"dtype": "DT_FLOAT", "tensorShape": {"dim": [{"size": "1"}, {"size": "1"}, {"size": "1"}, {"size": "1280"}]}}}, "dtype": {"type": "DT_FLOAT"}}}, {"name": "StatefulPartitionedCall/clean_plant_model_1/global_average_pooling2d_1/Mean/reduction_indices", "op": "Const", "attr": {"value": {"tensor": {"dtype": "DT_INT32", "tensorShape": {"dim": [{"size": "2"}]}}}, "dtype": {"type": "DT_INT32"}}}, {"name": "StatefulPartitionedCall/clean_plant_model_1/dense_1/Cast/ReadVariableOp", "op": "Const", "attr": {"value": {"tensor": {"dtype": "DT_FLOAT", "tensorShape": {"dim": [{"size": "1280"}, {"size": "86"}]}}}, "dtype": {"type": "DT_FLOAT"}}}, {"name": "StatefulPartitionedCall/clean_plant_model_1/dense_1/BiasAdd/ReadVariableOp", "op": "Const", "attr": {"value": {"tensor": {"dtype": "DT_FLOAT", "tensorShape": {"dim": [{"size": "86"}]}}}, "dtype": {"type": "DT_FLOAT"}}}, {"name": "input_layer", "op": "Placeholder", "attr": {"shape": {"shape": {"dim": [{"size": "-1"}, {"size": "224"}, {"size": "224"}, {"size": "3"}]}}, "dtype": {"type": "DT_FLOAT"}}}, {"name": "StatefulPartitionedCall/clean_plant_model_1/efficientnetv2-b0_1/Cast", "op": "Cast", "input": ["input_layer"], "attr": {"SrcT": {"type": "DT_FLOAT"}, "DstT": {"type": "DT_HALF"}, "Truncate": {"b": false}}}, {"name": "StatefulPartitionedCall/clean_plant_model_1/efficientnetv2-b0_1/rescaling_1/mul", "op": "Mul", "input": ["StatefulPartitionedCall/clean_plant_model_1/efficientnetv2-b0_1/Cast", "StatefulPartitionedCall/clean_plant_model_1/efficientnetv2-b0_1/rescaling_1/Cast"], "attr": {"T": {"type": "DT_HALF"}}}, {"name": "StatefulPartitionedCall/clean_plant_model_1/efficientnetv2-b0_1/rescaling_1/add", "op": "AddV2", "input": ["StatefulPartitionedCall/clean_plant_model_1/efficientnetv2-b0_1/rescaling_1/mul", "StatefulPartitionedCall/clean_plant_model_1/efficientnetv2-b0_1/rescaling_1/Cast_1"], "attr": {"T": {"type": "DT_HALF"}}}, {"name": "StatefulPartitionedCall/clean_plant_model_1/efficientnetv2-b0_1/normalization_1/Sub", "op": "Sub", "input": ["StatefulPartitionedCall/clean_plant_model_1/efficientnetv2-b0_1/rescaling_1/add", "unknown"], "attr": {"T": {"type": "DT_HALF"}}}, {"name": "StatefulPartitionedCall/clean_plant_model_1/efficientnetv2-b0_1/normalization_1/truediv", "op": "Mul", "input": ["StatefulPartitionedCall/clean_plant_model_1/efficientnetv2-b0_1/normalization_1/Sub", "ConstantFolding/StatefulPartitionedCall/clean_plant_model_1/efficientnetv2-b0_1/normalization_1/truediv_recip"], "attr": {"T": {"type": "DT_HALF"}}}, {"name": "StatefulPartitionedCall/clean_plant_model_1/efficientnetv2-b0_1/stem_conv_1/convolution", "op": "Conv2D", "input": ["StatefulPartitionedCall/clean_plant_model_1/efficientnetv2-b0_1/normalization_1/truediv", "StatefulPartitionedCall/clean_plant_model_1/efficientnetv2-b0_1/stem_conv_1/convolution/Cast"], "device": "/device:CPU:0", "attr": {"padding": {"s": "U0FNRQ=="}, "_input_shapes": {"list": {"shape": [{"dim": [{"size": "-2"}, {"size": "-3"}, {"size": "-4"}, {"size": "-5"}]}, {"dim": [{"size": "3"}, {"size": "3"}, {"size": "3"}, {"size": "32"}]}]}}, "data_format": {"s": "TkhXQw=="}, "use_cudnn_on_gpu": {"b": true}, "strides": {"list": {"i": ["1", "2", "2", "1"]}}, "T": {"type": "DT_HALF"}, "explicit_paddings": {"list": {}}, "dilations": {"list": {"i": ["1", "1", "1", "1"]}}}}, {"name": "StatefulPartitionedCall/clean_plant_model_1/efficientnetv2-b0_1/stem_bn_1/Cast", "op": "Cast", "input": ["StatefulPartitionedCall/clean_plant_model_1/efficientnetv2-b0_1/stem_conv_1/convolution"], "attr": {"SrcT": {"type": "DT_HALF"}, "DstT": {"type": "DT_FLOAT"}, "Truncate": {"b": false}}}, {"name": "StatefulPartitionedCall/clean_plant_model_1/efficientnetv2-b0_1/stem_bn_1/batchnorm/mul_1", "op": "Mul", "input": ["StatefulPartitionedCall/clean_plant_model_1/efficientnetv2-b0_1/stem_bn_1/Cast", "StatefulPartitionedCall/clean_plant_model_1/efficientnetv2-b0_1/stem_bn_1/batchnorm/mul"], "attr": {"T": {"type": "DT_FLOAT"}}}, {"name": "StatefulPartitionedCall/clean_plant_model_1/efficientnetv2-b0_1/stem_bn_1/batchnorm/add_1", "op": "AddV2", "input": ["StatefulPartitionedCall/clean_plant_model_1/efficientnetv2-b0_1/stem_bn_1/batchnorm/mul_1", "StatefulPartitionedCall/clean_plant_model_1/efficientnetv2-b0_1/stem_bn_1/batchnorm/sub"], "attr": {"T": {"type": "DT_FLOAT"}}}, {"name": "StatefulPartitionedCall/clean_plant_model_1/efficientnetv2-b0_1/stem_bn_1/Cast_5", "op": "Cast", "input": ["StatefulPartitionedCall/clean_plant_model_1/efficientnetv2-b0_1/stem_bn_1/batchnorm/add_1"], "attr": {"SrcT": {"type": "DT_FLOAT"}, "DstT": {"type": "DT_HALF"}, "Truncate": {"b": false}}}, {"name": "StatefulPartitionedCall/clean_plant_model_1/efficientnetv2-b0_1/stem_activation_1/Sigmoid", "op": "Sigmoid", "input": ["StatefulPartitionedCall/clean_plant_model_1/efficientnetv2-b0_1/stem_bn_1/Cast_5"], "attr": {"_input_shapes": {"list": {"shape": [{"dim": [{"size": "-2"}, {"size": "-6"}, {"size": "-7"}, {"size": "32"}]}]}}, "T": {"type": "DT_HALF"}}}, {"name": "StatefulPartitionedCall/clean_plant_model_1/efficientnetv2-b0_1/stem_activation_1/mul_1", "op": "Mul", "input": ["StatefulPartitionedCall/clean_plant_model_1/efficientnetv2-b0_1/stem_bn_1/Cast_5", "StatefulPartitionedCall/clean_plant_model_1/efficientnetv2-b0_1/stem_activation_1/Sigmoid"], "attr": {"T": {"type": "DT_HALF"}}}, {"name": "StatefulPartitionedCall/clean_plant_model_1/efficientnetv2-b0_1/block1a_project_conv_1/convolution", "op": "Conv2D", "input": ["StatefulPartitionedCall/clean_plant_model_1/efficientnetv2-b0_1/stem_activation_1/mul_1", "StatefulPartitionedCall/clean_plant_model_1/efficientnetv2-b0_1/block1a_project_conv_1/convolution/Cast"], "device": "/device:CPU:0", "attr": {"padding": {"s": "U0FNRQ=="}, "data_format": {"s": "TkhXQw=="}, "_input_shapes": {"list": {"shape": [{"dim": [{"size": "-2"}, {"size": "-6"}, {"size": "-7"}, {"size": "32"}]}, {"dim": [{"size": "3"}, {"size": "3"}, {"size": "32"}, {"size": "16"}]}]}}, "strides": {"list": {"i": ["1", "1", "1", "1"]}}, "use_cudnn_on_gpu": {"b": true}, "T": {"type": "DT_HALF"}, "explicit_paddings": {"list": {}}, "dilations": {"list": {"i": ["1", "1", "1", "1"]}}}}, {"name": "StatefulPartitionedCall/clean_plant_model_1/efficientnetv2-b0_1/block1a_project_bn_1/Cast", "op": "Cast", "input": ["StatefulPartitionedCall/clean_plant_model_1/efficientnetv2-b0_1/block1a_project_conv_1/convolution"], "attr": {"SrcT": {"type": "DT_HALF"}, "DstT": {"type": "DT_FLOAT"}, "Truncate": {"b": false}}}, {"name": "StatefulPartitionedCall/clean_plant_model_1/efficientnetv2-b0_1/block1a_project_bn_1/batchnorm/mul_1", "op": "Mul", "input": ["StatefulPartitionedCall/clean_plant_model_1/efficientnetv2-b0_1/block1a_project_bn_1/Cast", "StatefulPartitionedCall/clean_plant_model_1/efficientnetv2-b0_1/block1a_project_bn_1/batchnorm/mul"], "attr": {"T": {"type": "DT_FLOAT"}}}, {"name": "StatefulPartitionedCall/clean_plant_model_1/efficientnetv2-b0_1/block1a_project_bn_1/batchnorm/add_1", "op": "AddV2", "input": ["StatefulPartitionedCall/clean_plant_model_1/efficientnetv2-b0_1/block1a_project_bn_1/batchnorm/mul_1", "StatefulPartitionedCall/clean_plant_model_1/efficientnetv2-b0_1/block1a_project_bn_1/batchnorm/sub"], "attr": {"T": {"type": "DT_FLOAT"}}}, {"name": "StatefulPartitionedCall/clean_plant_model_1/efficientnetv2-b0_1/block1a_project_bn_1/Cast_5", "op": "Cast", "input": ["StatefulPartitionedCall/clean_plant_model_1/efficientnetv2-b0_1/block1a_project_bn_1/batchnorm/add_1"], "attr": {"SrcT": {"type": "DT_FLOAT"}, "DstT": {"type": "DT_HALF"}, "Truncate": {"b": false}}}, {"name": "StatefulPartitionedCall/clean_plant_model_1/efficientnetv2-b0_1/block1a_project_activation_1/Sigmoid", "op": "Sigmoid", "input": ["StatefulPartitionedCall/clean_plant_model_1/efficientnetv2-b0_1/block1a_project_bn_1/Cast_5"], "attr": {"_input_shapes": {"list": {"shape": [{"dim": [{"size": "-2"}, {"size": "-6"}, {"size": "-7"}, {"size": "16"}]}]}}, "T": {"type": "DT_HALF"}}}, {"name": "StatefulPartitionedCall/clean_plant_model_1/efficientnetv2-b0_1/block1a_project_activation_1/mul_1", "op": "Mul", "input": ["StatefulPartitionedCall/clean_plant_model_1/efficientnetv2-b0_1/block1a_project_bn_1/Cast_5", "StatefulPartitionedCall/clean_plant_model_1/efficientnetv2-b0_1/block1a_project_activation_1/Sigmoid"], "attr": {"T": {"type": "DT_HALF"}}}, {"name": "StatefulPartitionedCall/clean_plant_model_1/efficientnetv2-b0_1/block2a_expand_conv_1/convolution", "op": "Conv2D", "input": ["StatefulPartitionedCall/clean_plant_model_1/efficientnetv2-b0_1/block1a_project_activation_1/mul_1", "StatefulPartitionedCall/clean_plant_model_1/efficientnetv2-b0_1/block2a_expand_conv_1/convolution/Cast"], "device": "/device:CPU:0", "attr": {"padding": {"s": "U0FNRQ=="}, "_input_shapes": {"list": {"shape": [{"dim": [{"size": "-2"}, {"size": "-6"}, {"size": "-7"}, {"size": "16"}]}, {"dim": [{"size": "3"}, {"size": "3"}, {"size": "16"}, {"size": "64"}]}]}}, "data_format": {"s": "TkhXQw=="}, "strides": {"list": {"i": ["1", "2", "2", "1"]}}, "use_cudnn_on_gpu": {"b": true}, "T": {"type": "DT_HALF"}, "explicit_paddings": {"list": {}}, "dilations": {"list": {"i": ["1", "1", "1", "1"]}}}}, {"name": "StatefulPartitionedCall/clean_plant_model_1/efficientnetv2-b0_1/block2a_expand_bn_1/Cast", "op": "Cast", "input": ["StatefulPartitionedCall/clean_plant_model_1/efficientnetv2-b0_1/block2a_expand_conv_1/convolution"], "attr": {"SrcT": {"type": "DT_HALF"}, "DstT": {"type": "DT_FLOAT"}, "Truncate": {"b": false}}}, {"name": "StatefulPartitionedCall/clean_plant_model_1/efficientnetv2-b0_1/block2a_expand_bn_1/batchnorm/mul_1", "op": "Mul", "input": ["StatefulPartitionedCall/clean_plant_model_1/efficientnetv2-b0_1/block2a_expand_bn_1/Cast", "StatefulPartitionedCall/clean_plant_model_1/efficientnetv2-b0_1/block2a_expand_bn_1/batchnorm/mul"], "attr": {"T": {"type": "DT_FLOAT"}}}, {"name": "StatefulPartitionedCall/clean_plant_model_1/efficientnetv2-b0_1/block2a_expand_bn_1/batchnorm/add_1", "op": "AddV2", "input": ["StatefulPartitionedCall/clean_plant_model_1/efficientnetv2-b0_1/block2a_expand_bn_1/batchnorm/mul_1", "StatefulPartitionedCall/clean_plant_model_1/efficientnetv2-b0_1/block2a_expand_bn_1/batchnorm/sub"], "attr": {"T": {"type": "DT_FLOAT"}}}, {"name": "StatefulPartitionedCall/clean_plant_model_1/efficientnetv2-b0_1/block2a_expand_bn_1/Cast_5", "op": "Cast", "input": ["StatefulPartitionedCall/clean_plant_model_1/efficientnetv2-b0_1/block2a_expand_bn_1/batchnorm/add_1"], "attr": {"SrcT": {"type": "DT_FLOAT"}, "DstT": {"type": "DT_HALF"}, "Truncate": {"b": false}}}, {"name": "StatefulPartitionedCall/clean_plant_model_1/efficientnetv2-b0_1/block2a_expand_activation_1/Sigmoid", "op": "Sigmoid", "input": ["StatefulPartitionedCall/clean_plant_model_1/efficientnetv2-b0_1/block2a_expand_bn_1/Cast_5"], "attr": {"_input_shapes": {"list": {"shape": [{"dim": [{"size": "-2"}, {"size": "-8"}, {"size": "-9"}, {"size": "64"}]}]}}, "T": {"type": "DT_HALF"}}}, {"name": "StatefulPartitionedCall/clean_plant_model_1/efficientnetv2-b0_1/block2a_expand_activation_1/mul_1", "op": "Mul", "input": ["StatefulPartitionedCall/clean_plant_model_1/efficientnetv2-b0_1/block2a_expand_bn_1/Cast_5", "StatefulPartitionedCall/clean_plant_model_1/efficientnetv2-b0_1/block2a_expand_activation_1/Sigmoid"], "attr": {"T": {"type": "DT_HALF"}}}, {"name": "StatefulPartitionedCall/clean_plant_model_1/efficientnetv2-b0_1/block2a_project_conv_1/convolution", "op": "Conv2D", "input": ["StatefulPartitionedCall/clean_plant_model_1/efficientnetv2-b0_1/block2a_expand_activation_1/mul_1", "StatefulPartitionedCall/clean_plant_model_1/efficientnetv2-b0_1/block2a_project_conv_1/convolution/Cast"], "device": "/device:CPU:0", "attr": {"padding": {"s": "U0FNRQ=="}, "data_format": {"s": "TkhXQw=="}, "_input_shapes": {"list": {"shape": [{"dim": [{"size": "-2"}, {"size": "-8"}, {"size": "-9"}, {"size": "64"}]}, {"dim": [{"size": "1"}, {"size": "1"}, {"size": "64"}, {"size": "32"}]}]}}, "strides": {"list": {"i": ["1", "1", "1", "1"]}}, "use_cudnn_on_gpu": {"b": true}, "T": {"type": "DT_HALF"}, "explicit_paddings": {"list": {}}, "dilations": {"list": {"i": ["1", "1", "1", "1"]}}}}, {"name": "StatefulPartitionedCall/clean_plant_model_1/efficientnetv2-b0_1/block2a_project_bn_1/Cast", "op": "Cast", "input": ["StatefulPartitionedCall/clean_plant_model_1/efficientnetv2-b0_1/block2a_project_conv_1/convolution"], "attr": {"SrcT": {"type": "DT_HALF"}, "DstT": {"type": "DT_FLOAT"}, "Truncate": {"b": false}}}, {"name": "StatefulPartitionedCall/clean_plant_model_1/efficientnetv2-b0_1/block2a_project_bn_1/batchnorm/mul_1", "op": "Mul", "input": ["StatefulPartitionedCall/clean_plant_model_1/efficientnetv2-b0_1/block2a_project_bn_1/Cast", "StatefulPartitionedCall/clean_plant_model_1/efficientnetv2-b0_1/block2a_project_bn_1/batchnorm/mul"], "attr": {"T": {"type": "DT_FLOAT"}}}, {"name": "StatefulPartitionedCall/clean_plant_model_1/efficientnetv2-b0_1/block2a_project_bn_1/batchnorm/add_1", "op": "AddV2", "input": ["StatefulPartitionedCall/clean_plant_model_1/efficientnetv2-b0_1/block2a_project_bn_1/batchnorm/mul_1", "StatefulPartitionedCall/clean_plant_model_1/efficientnetv2-b0_1/block2a_project_bn_1/batchnorm/sub"], "attr": {"T": {"type": "DT_FLOAT"}}}, {"name": "StatefulPartitionedCall/clean_plant_model_1/efficientnetv2-b0_1/block2a_project_bn_1/Cast_5", "op": "Cast", "input": ["StatefulPartitionedCall/clean_plant_model_1/efficientnetv2-b0_1/block2a_project_bn_1/batchnorm/add_1"], "attr": {"SrcT": {"type": "DT_FLOAT"}, "DstT": {"type": "DT_HALF"}, "Truncate": {"b": false}}}, {"name": "StatefulPartitionedCall/clean_plant_model_1/efficientnetv2-b0_1/block2b_expand_conv_1/convolution", "op": "Conv2D", "input": ["StatefulPartitionedCall/clean_plant_model_1/efficientnetv2-b0_1/block2a_project_bn_1/Cast_5", "StatefulPartitionedCall/clean_plant_model_1/efficientnetv2-b0_1/block2b_expand_conv_1/convolution/Cast"], "device": "/device:CPU:0", "attr": {"padding": {"s": "U0FNRQ=="}, "data_format": {"s": "TkhXQw=="}, "_input_shapes": {"list": {"shape": [{"dim": [{"size": "-2"}, {"size": "-8"}, {"size": "-9"}, {"size": "32"}]}, {"dim": [{"size": "3"}, {"size": "3"}, {"size": "32"}, {"size": "128"}]}]}}, "use_cudnn_on_gpu": {"b": true}, "strides": {"list": {"i": ["1", "1", "1", "1"]}}, "T": {"type": "DT_HALF"}, "explicit_paddings": {"list": {}}, "dilations": {"list": {"i": ["1", "1", "1", "1"]}}}}, {"name": "StatefulPartitionedCall/clean_plant_model_1/efficientnetv2-b0_1/block2b_expand_bn_1/Cast", "op": "Cast", "input": ["StatefulPartitionedCall/clean_plant_model_1/efficientnetv2-b0_1/block2b_expand_conv_1/convolution"], "attr": {"SrcT": {"type": "DT_HALF"}, "DstT": {"type": "DT_FLOAT"}, "Truncate": {"b": false}}}, {"name": "StatefulPartitionedCall/clean_plant_model_1/efficientnetv2-b0_1/block2b_expand_bn_1/batchnorm/mul_1", "op": "Mul", "input": ["StatefulPartitionedCall/clean_plant_model_1/efficientnetv2-b0_1/block2b_expand_bn_1/Cast", "StatefulPartitionedCall/clean_plant_model_1/efficientnetv2-b0_1/block2b_expand_bn_1/batchnorm/mul"], "attr": {"T": {"type": "DT_FLOAT"}}}, {"name": "StatefulPartitionedCall/clean_plant_model_1/efficientnetv2-b0_1/block2b_expand_bn_1/batchnorm/add_1", "op": "AddV2", "input": ["StatefulPartitionedCall/clean_plant_model_1/efficientnetv2-b0_1/block2b_expand_bn_1/batchnorm/mul_1", "StatefulPartitionedCall/clean_plant_model_1/efficientnetv2-b0_1/block2b_expand_bn_1/batchnorm/sub"], "attr": {"T": {"type": "DT_FLOAT"}}}, {"name": "StatefulPartitionedCall/clean_plant_model_1/efficientnetv2-b0_1/block2b_expand_bn_1/Cast_5", "op": "Cast", "input": ["StatefulPartitionedCall/clean_plant_model_1/efficientnetv2-b0_1/block2b_expand_bn_1/batchnorm/add_1"], "attr": {"SrcT": {"type": "DT_FLOAT"}, "DstT": {"type": "DT_HALF"}, "Truncate": {"b": false}}}, {"name": "StatefulPartitionedCall/clean_plant_model_1/efficientnetv2-b0_1/block2b_expand_activation_1/Sigmoid", "op": "Sigmoid", "input": ["StatefulPartitionedCall/clean_plant_model_1/efficientnetv2-b0_1/block2b_expand_bn_1/Cast_5"], "attr": {"_input_shapes": {"list": {"shape": [{"dim": [{"size": "-2"}, {"size": "-8"}, {"size": "-9"}, {"size": "128"}]}]}}, "T": {"type": "DT_HALF"}}}, {"name": "StatefulPartitionedCall/clean_plant_model_1/efficientnetv2-b0_1/block2b_expand_activation_1/mul_1", "op": "Mul", "input": ["StatefulPartitionedCall/clean_plant_model_1/efficientnetv2-b0_1/block2b_expand_bn_1/Cast_5", "StatefulPartitionedCall/clean_plant_model_1/efficientnetv2-b0_1/block2b_expand_activation_1/Sigmoid"], "attr": {"T": {"type": "DT_HALF"}}}, {"name": "StatefulPartitionedCall/clean_plant_model_1/efficientnetv2-b0_1/block2b_project_conv_1/convolution", "op": "Conv2D", "input": ["StatefulPartitionedCall/clean_plant_model_1/efficientnetv2-b0_1/block2b_expand_activation_1/mul_1", "StatefulPartitionedCall/clean_plant_model_1/efficientnetv2-b0_1/block2b_project_conv_1/convolution/Cast"], "device": "/device:CPU:0", "attr": {"padding": {"s": "U0FNRQ=="}, "_input_shapes": {"list": {"shape": [{"dim": [{"size": "-2"}, {"size": "-8"}, {"size": "-9"}, {"size": "128"}]}, {"dim": [{"size": "1"}, {"size": "1"}, {"size": "128"}, {"size": "32"}]}]}}, "data_format": {"s": "TkhXQw=="}, "use_cudnn_on_gpu": {"b": true}, "strides": {"list": {"i": ["1", "1", "1", "1"]}}, "T": {"type": "DT_HALF"}, "explicit_paddings": {"list": {}}, "dilations": {"list": {"i": ["1", "1", "1", "1"]}}}}, {"name": "StatefulPartitionedCall/clean_plant_model_1/efficientnetv2-b0_1/block2b_project_bn_1/Cast", "op": "Cast", "input": ["StatefulPartitionedCall/clean_plant_model_1/efficientnetv2-b0_1/block2b_project_conv_1/convolution"], "attr": {"SrcT": {"type": "DT_HALF"}, "DstT": {"type": "DT_FLOAT"}, "Truncate": {"b": false}}}, {"name": "StatefulPartitionedCall/clean_plant_model_1/efficientnetv2-b0_1/block2b_project_bn_1/batchnorm/mul_1", "op": "Mul", "input": ["StatefulPartitionedCall/clean_plant_model_1/efficientnetv2-b0_1/block2b_project_bn_1/Cast", "StatefulPartitionedCall/clean_plant_model_1/efficientnetv2-b0_1/block2b_project_bn_1/batchnorm/mul"], "attr": {"T": {"type": "DT_FLOAT"}}}, {"name": "StatefulPartitionedCall/clean_plant_model_1/efficientnetv2-b0_1/block2b_project_bn_1/batchnorm/add_1", "op": "AddV2", "input": ["StatefulPartitionedCall/clean_plant_model_1/efficientnetv2-b0_1/block2b_project_bn_1/batchnorm/mul_1", "StatefulPartitionedCall/clean_plant_model_1/efficientnetv2-b0_1/block2b_project_bn_1/batchnorm/sub"], "attr": {"T": {"type": "DT_FLOAT"}}}, {"name": "StatefulPartitionedCall/clean_plant_model_1/efficientnetv2-b0_1/block2b_project_bn_1/Cast_5", "op": "Cast", "input": ["StatefulPartitionedCall/clean_plant_model_1/efficientnetv2-b0_1/block2b_project_bn_1/batchnorm/add_1"], "attr": {"SrcT": {"type": "DT_FLOAT"}, "DstT": {"type": "DT_HALF"}, "Truncate": {"b": false}}}, {"name": "StatefulPartitionedCall/clean_plant_model_1/efficientnetv2-b0_1/block2b_add_1/Add", "op": "AddV2", "input": ["StatefulPartitionedCall/clean_plant_model_1/efficientnetv2-b0_1/block2b_project_bn_1/Cast_5", "StatefulPartitionedCall/clean_plant_model_1/efficientnetv2-b0_1/block2a_project_bn_1/Cast_5"], "attr": {"T": {"type": "DT_HALF"}}}, {"name": "StatefulPartitionedCall/clean_plant_model_1/efficientnetv2-b0_1/block3a_expand_conv_1/convolution", "op": "Conv2D", "input": ["StatefulPartitionedCall/clean_plant_model_1/efficientnetv2-b0_1/block2b_add_1/Add", "StatefulPartitionedCall/clean_plant_model_1/efficientnetv2-b0_1/block3a_expand_conv_1/convolution/Cast"], "device": "/device:CPU:0", "attr": {"padding": {"s": "U0FNRQ=="}, "data_format": {"s": "TkhXQw=="}, "_input_shapes": {"list": {"shape": [{"dim": [{"size": "-2"}, {"size": "-8"}, {"size": "-9"}, {"size": "32"}]}, {"dim": [{"size": "3"}, {"size": "3"}, {"size": "32"}, {"size": "128"}]}]}}, "use_cudnn_on_gpu": {"b": true}, "strides": {"list": {"i": ["1", "2", "2", "1"]}}, "T": {"type": "DT_HALF"}, "explicit_paddings": {"list": {}}, "dilations": {"list": {"i": ["1", "1", "1", "1"]}}}}, {"name": "StatefulPartitionedCall/clean_plant_model_1/efficientnetv2-b0_1/block3a_expand_bn_1/Cast", "op": "Cast", "input": ["StatefulPartitionedCall/clean_plant_model_1/efficientnetv2-b0_1/block3a_expand_conv_1/convolution"], "attr": {"SrcT": {"type": "DT_HALF"}, "DstT": {"type": "DT_FLOAT"}, "Truncate": {"b": false}}}, {"name": "StatefulPartitionedCall/clean_plant_model_1/efficientnetv2-b0_1/block3a_expand_bn_1/batchnorm/mul_1", "op": "Mul", "input": ["StatefulPartitionedCall/clean_plant_model_1/efficientnetv2-b0_1/block3a_expand_bn_1/Cast", "StatefulPartitionedCall/clean_plant_model_1/efficientnetv2-b0_1/block3a_expand_bn_1/batchnorm/mul"], "attr": {"T": {"type": "DT_FLOAT"}}}, {"name": "StatefulPartitionedCall/clean_plant_model_1/efficientnetv2-b0_1/block3a_expand_bn_1/batchnorm/add_1", "op": "AddV2", "input": ["StatefulPartitionedCall/clean_plant_model_1/efficientnetv2-b0_1/block3a_expand_bn_1/batchnorm/mul_1", "StatefulPartitionedCall/clean_plant_model_1/efficientnetv2-b0_1/block3a_expand_bn_1/batchnorm/sub"], "attr": {"T": {"type": "DT_FLOAT"}}}, {"name": "StatefulPartitionedCall/clean_plant_model_1/efficientnetv2-b0_1/block3a_expand_bn_1/Cast_5", "op": "Cast", "input": ["StatefulPartitionedCall/clean_plant_model_1/efficientnetv2-b0_1/block3a_expand_bn_1/batchnorm/add_1"], "attr": {"SrcT": {"type": "DT_FLOAT"}, "DstT": {"type": "DT_HALF"}, "Truncate": {"b": false}}}, {"name": "StatefulPartitionedCall/clean_plant_model_1/efficientnetv2-b0_1/block3a_expand_activation_1/Sigmoid", "op": "Sigmoid", "input": ["StatefulPartitionedCall/clean_plant_model_1/efficientnetv2-b0_1/block3a_expand_bn_1/Cast_5"], "attr": {"_input_shapes": {"list": {"shape": [{"dim": [{"size": "-2"}, {"size": "-10"}, {"size": "-11"}, {"size": "128"}]}]}}, "T": {"type": "DT_HALF"}}}, {"name": "StatefulPartitionedCall/clean_plant_model_1/efficientnetv2-b0_1/block3a_expand_activation_1/mul_1", "op": "Mul", "input": ["StatefulPartitionedCall/clean_plant_model_1/efficientnetv2-b0_1/block3a_expand_bn_1/Cast_5", "StatefulPartitionedCall/clean_plant_model_1/efficientnetv2-b0_1/block3a_expand_activation_1/Sigmoid"], "attr": {"T": {"type": "DT_HALF"}}}, {"name": "StatefulPartitionedCall/clean_plant_model_1/efficientnetv2-b0_1/block3a_project_conv_1/convolution", "op": "Conv2D", "input": ["StatefulPartitionedCall/clean_plant_model_1/efficientnetv2-b0_1/block3a_expand_activation_1/mul_1", "StatefulPartitionedCall/clean_plant_model_1/efficientnetv2-b0_1/block3a_project_conv_1/convolution/Cast"], "device": "/device:CPU:0", "attr": {"padding": {"s": "U0FNRQ=="}, "data_format": {"s": "TkhXQw=="}, "_input_shapes": {"list": {"shape": [{"dim": [{"size": "-2"}, {"size": "-10"}, {"size": "-11"}, {"size": "128"}]}, {"dim": [{"size": "1"}, {"size": "1"}, {"size": "128"}, {"size": "48"}]}]}}, "strides": {"list": {"i": ["1", "1", "1", "1"]}}, "use_cudnn_on_gpu": {"b": true}, "T": {"type": "DT_HALF"}, "explicit_paddings": {"list": {}}, "dilations": {"list": {"i": ["1", "1", "1", "1"]}}}}, {"name": "StatefulPartitionedCall/clean_plant_model_1/efficientnetv2-b0_1/block3a_project_bn_1/Cast", "op": "Cast", "input": ["StatefulPartitionedCall/clean_plant_model_1/efficientnetv2-b0_1/block3a_project_conv_1/convolution"], "attr": {"SrcT": {"type": "DT_HALF"}, "DstT": {"type": "DT_FLOAT"}, "Truncate": {"b": false}}}, {"name": "StatefulPartitionedCall/clean_plant_model_1/efficientnetv2-b0_1/block3a_project_bn_1/batchnorm/mul_1", "op": "Mul", "input": ["StatefulPartitionedCall/clean_plant_model_1/efficientnetv2-b0_1/block3a_project_bn_1/Cast", "StatefulPartitionedCall/clean_plant_model_1/efficientnetv2-b0_1/block3a_project_bn_1/batchnorm/mul"], "attr": {"T": {"type": "DT_FLOAT"}}}, {"name": "StatefulPartitionedCall/clean_plant_model_1/efficientnetv2-b0_1/block3a_project_bn_1/batchnorm/add_1", "op": "AddV2", "input": ["StatefulPartitionedCall/clean_plant_model_1/efficientnetv2-b0_1/block3a_project_bn_1/batchnorm/mul_1", "StatefulPartitionedCall/clean_plant_model_1/efficientnetv2-b0_1/block3a_project_bn_1/batchnorm/sub"], "attr": {"T": {"type": "DT_FLOAT"}}}, {"name": "StatefulPartitionedCall/clean_plant_model_1/efficientnetv2-b0_1/block3a_project_bn_1/Cast_5", "op": "Cast", "input": ["StatefulPartitionedCall/clean_plant_model_1/efficientnetv2-b0_1/block3a_project_bn_1/batchnorm/add_1"], "attr": {"SrcT": {"type": "DT_FLOAT"}, "DstT": {"type": "DT_HALF"}, "Truncate": {"b": false}}}, {"name": "StatefulPartitionedCall/clean_plant_model_1/efficientnetv2-b0_1/block3b_expand_conv_1/convolution", "op": "Conv2D", "input": ["StatefulPartitionedCall/clean_plant_model_1/efficientnetv2-b0_1/block3a_project_bn_1/Cast_5", "StatefulPartitionedCall/clean_plant_model_1/efficientnetv2-b0_1/block3b_expand_conv_1/convolution/Cast"], "device": "/device:CPU:0", "attr": {"padding": {"s": "U0FNRQ=="}, "data_format": {"s": "TkhXQw=="}, "_input_shapes": {"list": {"shape": [{"dim": [{"size": "-2"}, {"size": "-10"}, {"size": "-11"}, {"size": "48"}]}, {"dim": [{"size": "3"}, {"size": "3"}, {"size": "48"}, {"size": "192"}]}]}}, "strides": {"list": {"i": ["1", "1", "1", "1"]}}, "use_cudnn_on_gpu": {"b": true}, "T": {"type": "DT_HALF"}, "explicit_paddings": {"list": {}}, "dilations": {"list": {"i": ["1", "1", "1", "1"]}}}}, {"name": "StatefulPartitionedCall/clean_plant_model_1/efficientnetv2-b0_1/block3b_expand_bn_1/Cast", "op": "Cast", "input": ["StatefulPartitionedCall/clean_plant_model_1/efficientnetv2-b0_1/block3b_expand_conv_1/convolution"], "attr": {"SrcT": {"type": "DT_HALF"}, "DstT": {"type": "DT_FLOAT"}, "Truncate": {"b": false}}}, {"name": "StatefulPartitionedCall/clean_plant_model_1/efficientnetv2-b0_1/block3b_expand_bn_1/batchnorm/mul_1", "op": "Mul", "input": ["StatefulPartitionedCall/clean_plant_model_1/efficientnetv2-b0_1/block3b_expand_bn_1/Cast", "StatefulPartitionedCall/clean_plant_model_1/efficientnetv2-b0_1/block3b_expand_bn_1/batchnorm/mul"], "attr": {"T": {"type": "DT_FLOAT"}}}, {"name": "StatefulPartitionedCall/clean_plant_model_1/efficientnetv2-b0_1/block3b_expand_bn_1/batchnorm/add_1", "op": "AddV2", "input": ["StatefulPartitionedCall/clean_plant_model_1/efficientnetv2-b0_1/block3b_expand_bn_1/batchnorm/mul_1", "StatefulPartitionedCall/clean_plant_model_1/efficientnetv2-b0_1/block3b_expand_bn_1/batchnorm/sub"], "attr": {"T": {"type": "DT_FLOAT"}}}, {"name": "StatefulPartitionedCall/clean_plant_model_1/efficientnetv2-b0_1/block3b_expand_bn_1/Cast_5", "op": "Cast", "input": ["StatefulPartitionedCall/clean_plant_model_1/efficientnetv2-b0_1/block3b_expand_bn_1/batchnorm/add_1"], "attr": {"SrcT": {"type": "DT_FLOAT"}, "DstT": {"type": "DT_HALF"}, "Truncate": {"b": false}}}, {"name": "StatefulPartitionedCall/clean_plant_model_1/efficientnetv2-b0_1/block3b_expand_activation_1/Sigmoid", "op": "Sigmoid", "input": ["StatefulPartitionedCall/clean_plant_model_1/efficientnetv2-b0_1/block3b_expand_bn_1/Cast_5"], "attr": {"_input_shapes": {"list": {"shape": [{"dim": [{"size": "-2"}, {"size": "-10"}, {"size": "-11"}, {"size": "192"}]}]}}, "T": {"type": "DT_HALF"}}}, {"name": "StatefulPartitionedCall/clean_plant_model_1/efficientnetv2-b0_1/block3b_expand_activation_1/mul_1", "op": "Mul", "input": ["StatefulPartitionedCall/clean_plant_model_1/efficientnetv2-b0_1/block3b_expand_bn_1/Cast_5", "StatefulPartitionedCall/clean_plant_model_1/efficientnetv2-b0_1/block3b_expand_activation_1/Sigmoid"], "attr": {"T": {"type": "DT_HALF"}}}, {"name": "StatefulPartitionedCall/clean_plant_model_1/efficientnetv2-b0_1/block3b_project_conv_1/convolution", "op": "Conv2D", "input": ["StatefulPartitionedCall/clean_plant_model_1/efficientnetv2-b0_1/block3b_expand_activation_1/mul_1", "StatefulPartitionedCall/clean_plant_model_1/efficientnetv2-b0_1/block3b_project_conv_1/convolution/Cast"], "device": "/device:CPU:0", "attr": {"padding": {"s": "U0FNRQ=="}, "data_format": {"s": "TkhXQw=="}, "_input_shapes": {"list": {"shape": [{"dim": [{"size": "-2"}, {"size": "-10"}, {"size": "-11"}, {"size": "192"}]}, {"dim": [{"size": "1"}, {"size": "1"}, {"size": "192"}, {"size": "48"}]}]}}, "strides": {"list": {"i": ["1", "1", "1", "1"]}}, "use_cudnn_on_gpu": {"b": true}, "T": {"type": "DT_HALF"}, "explicit_paddings": {"list": {}}, "dilations": {"list": {"i": ["1", "1", "1", "1"]}}}}, {"name": "StatefulPartitionedCall/clean_plant_model_1/efficientnetv2-b0_1/block3b_project_bn_1/Cast", "op": "Cast", "input": ["StatefulPartitionedCall/clean_plant_model_1/efficientnetv2-b0_1/block3b_project_conv_1/convolution"], "attr": {"SrcT": {"type": "DT_HALF"}, "DstT": {"type": "DT_FLOAT"}, "Truncate": {"b": false}}}, {"name": "StatefulPartitionedCall/clean_plant_model_1/efficientnetv2-b0_1/block3b_project_bn_1/batchnorm/mul_1", "op": "Mul", "input": ["StatefulPartitionedCall/clean_plant_model_1/efficientnetv2-b0_1/block3b_project_bn_1/Cast", "StatefulPartitionedCall/clean_plant_model_1/efficientnetv2-b0_1/block3b_project_bn_1/batchnorm/mul"], "attr": {"T": {"type": "DT_FLOAT"}}}, {"name": "StatefulPartitionedCall/clean_plant_model_1/efficientnetv2-b0_1/block3b_project_bn_1/batchnorm/add_1", "op": "AddV2", "input": ["StatefulPartitionedCall/clean_plant_model_1/efficientnetv2-b0_1/block3b_project_bn_1/batchnorm/mul_1", "StatefulPartitionedCall/clean_plant_model_1/efficientnetv2-b0_1/block3b_project_bn_1/batchnorm/sub"], "attr": {"T": {"type": "DT_FLOAT"}}}, {"name": "StatefulPartitionedCall/clean_plant_model_1/efficientnetv2-b0_1/block3b_project_bn_1/Cast_5", "op": "Cast", "input": ["StatefulPartitionedCall/clean_plant_model_1/efficientnetv2-b0_1/block3b_project_bn_1/batchnorm/add_1"], "attr": {"SrcT": {"type": "DT_FLOAT"}, "DstT": {"type": "DT_HALF"}, "Truncate": {"b": false}}}, {"name": "StatefulPartitionedCall/clean_plant_model_1/efficientnetv2-b0_1/block3b_add_1/Add", "op": "AddV2", "input": ["StatefulPartitionedCall/clean_plant_model_1/efficientnetv2-b0_1/block3b_project_bn_1/Cast_5", "StatefulPartitionedCall/clean_plant_model_1/efficientnetv2-b0_1/block3a_project_bn_1/Cast_5"], "attr": {"T": {"type": "DT_HALF"}}}, {"name": "StatefulPartitionedCall/clean_plant_model_1/efficientnetv2-b0_1/block4a_expand_conv_1/convolution", "op": "Conv2D", "input": ["StatefulPartitionedCall/clean_plant_model_1/efficientnetv2-b0_1/block3b_add_1/Add", "StatefulPartitionedCall/clean_plant_model_1/efficientnetv2-b0_1/block4a_expand_conv_1/convolution/Cast"], "device": "/device:CPU:0", "attr": {"padding": {"s": "U0FNRQ=="}, "_input_shapes": {"list": {"shape": [{"dim": [{"size": "-2"}, {"size": "-10"}, {"size": "-11"}, {"size": "48"}]}, {"dim": [{"size": "1"}, {"size": "1"}, {"size": "48"}, {"size": "192"}]}]}}, "data_format": {"s": "TkhXQw=="}, "strides": {"list": {"i": ["1", "1", "1", "1"]}}, "use_cudnn_on_gpu": {"b": true}, "T": {"type": "DT_HALF"}, "explicit_paddings": {"list": {}}, "dilations": {"list": {"i": ["1", "1", "1", "1"]}}}}, {"name": "StatefulPartitionedCall/clean_plant_model_1/efficientnetv2-b0_1/block4a_expand_bn_1/Cast", "op": "Cast", "input": ["StatefulPartitionedCall/clean_plant_model_1/efficientnetv2-b0_1/block4a_expand_conv_1/convolution"], "attr": {"SrcT": {"type": "DT_HALF"}, "DstT": {"type": "DT_FLOAT"}, "Truncate": {"b": false}}}, {"name": "StatefulPartitionedCall/clean_plant_model_1/efficientnetv2-b0_1/block4a_expand_bn_1/batchnorm/mul_1", "op": "Mul", "input": ["StatefulPartitionedCall/clean_plant_model_1/efficientnetv2-b0_1/block4a_expand_bn_1/Cast", "StatefulPartitionedCall/clean_plant_model_1/efficientnetv2-b0_1/block4a_expand_bn_1/batchnorm/mul"], "attr": {"T": {"type": "DT_FLOAT"}}}, {"name": "StatefulPartitionedCall/clean_plant_model_1/efficientnetv2-b0_1/block4a_expand_bn_1/batchnorm/add_1", "op": "AddV2", "input": ["StatefulPartitionedCall/clean_plant_model_1/efficientnetv2-b0_1/block4a_expand_bn_1/batchnorm/mul_1", "StatefulPartitionedCall/clean_plant_model_1/efficientnetv2-b0_1/block4a_expand_bn_1/batchnorm/sub"], "attr": {"T": {"type": "DT_FLOAT"}}}, {"name": "StatefulPartitionedCall/clean_plant_model_1/efficientnetv2-b0_1/block4a_expand_bn_1/Cast_5", "op": "Cast", "input": ["StatefulPartitionedCall/clean_plant_model_1/efficientnetv2-b0_1/block4a_expand_bn_1/batchnorm/add_1"], "attr": {"SrcT": {"type": "DT_FLOAT"}, "DstT": {"type": "DT_HALF"}, "Truncate": {"b": false}}}, {"name": "StatefulPartitionedCall/clean_plant_model_1/efficientnetv2-b0_1/block4a_expand_activation_1/Sigmoid", "op": "Sigmoid", "input": ["StatefulPartitionedCall/clean_plant_model_1/efficientnetv2-b0_1/block4a_expand_bn_1/Cast_5"], "attr": {"_input_shapes": {"list": {"shape": [{"dim": [{"size": "-2"}, {"size": "-10"}, {"size": "-11"}, {"size": "192"}]}]}}, "T": {"type": "DT_HALF"}}}, {"name": "StatefulPartitionedCall/clean_plant_model_1/efficientnetv2-b0_1/block4a_expand_activation_1/mul_1", "op": "Mul", "input": ["StatefulPartitionedCall/clean_plant_model_1/efficientnetv2-b0_1/block4a_expand_bn_1/Cast_5", "StatefulPartitionedCall/clean_plant_model_1/efficientnetv2-b0_1/block4a_expand_activation_1/Sigmoid"], "attr": {"T": {"type": "DT_HALF"}}}, {"name": "StatefulPartitionedCall/clean_plant_model_1/efficientnetv2-b0_1/block4a_dwconv2_1/depthwise", "op": "DepthwiseConv2dNative", "input": ["StatefulPartitionedCall/clean_plant_model_1/efficientnetv2-b0_1/block4a_expand_activation_1/mul_1", "StatefulPartitionedCall/clean_plant_model_1/efficientnetv2-b0_1/block4a_dwconv2_1/depthwise/Cast"], "attr": {"padding": {"s": "U0FNRQ=="}, "_input_shapes": {"list": {"shape": [{"dim": [{"size": "-2"}, {"size": "-10"}, {"size": "-11"}, {"size": "192"}]}, {"dim": [{"size": "3"}, {"size": "3"}, {"size": "192"}, {"size": "1"}]}]}}, "data_format": {"s": "TkhXQw=="}, "strides": {"list": {"i": ["1", "2", "2", "1"]}}, "T": {"type": "DT_HALF"}, "explicit_paddings": {"list": {}}, "dilations": {"list": {"i": ["1", "1", "1", "1"]}}}}, {"name": "StatefulPartitionedCall/clean_plant_model_1/efficientnetv2-b0_1/block4a_bn_1/Cast", "op": "Cast", "input": ["StatefulPartitionedCall/clean_plant_model_1/efficientnetv2-b0_1/block4a_dwconv2_1/depthwise"], "attr": {"SrcT": {"type": "DT_HALF"}, "DstT": {"type": "DT_FLOAT"}, "Truncate": {"b": false}}}, {"name": "StatefulPartitionedCall/clean_plant_model_1/efficientnetv2-b0_1/block4a_bn_1/batchnorm/mul_1", "op": "Mul", "input": ["StatefulPartitionedCall/clean_plant_model_1/efficientnetv2-b0_1/block4a_bn_1/Cast", "StatefulPartitionedCall/clean_plant_model_1/efficientnetv2-b0_1/block4a_bn_1/batchnorm/mul"], "attr": {"T": {"type": "DT_FLOAT"}}}, {"name": "StatefulPartitionedCall/clean_plant_model_1/efficientnetv2-b0_1/block4a_bn_1/batchnorm/add_1", "op": "AddV2", "input": ["StatefulPartitionedCall/clean_plant_model_1/efficientnetv2-b0_1/block4a_bn_1/batchnorm/mul_1", "StatefulPartitionedCall/clean_plant_model_1/efficientnetv2-b0_1/block4a_bn_1/batchnorm/sub"], "attr": {"T": {"type": "DT_FLOAT"}}}, {"name": "StatefulPartitionedCall/clean_plant_model_1/efficientnetv2-b0_1/block4a_bn_1/Cast_5", "op": "Cast", "input": ["StatefulPartitionedCall/clean_plant_model_1/efficientnetv2-b0_1/block4a_bn_1/batchnorm/add_1"], "attr": {"SrcT": {"type": "DT_FLOAT"}, "DstT": {"type": "DT_HALF"}, "Truncate": {"b": false}}}, {"name": "StatefulPartitionedCall/clean_plant_model_1/efficientnetv2-b0_1/block4a_activation_1/Sigmoid", "op": "Sigmoid", "input": ["StatefulPartitionedCall/clean_plant_model_1/efficientnetv2-b0_1/block4a_bn_1/Cast_5"], "attr": {"_input_shapes": {"list": {"shape": [{"dim": [{"size": "-2"}, {"size": "-12"}, {"size": "-13"}, {"size": "192"}]}]}}, "T": {"type": "DT_HALF"}}}, {"name": "StatefulPartitionedCall/clean_plant_model_1/efficientnetv2-b0_1/block4a_activation_1/mul_1", "op": "Mul", "input": ["StatefulPartitionedCall/clean_plant_model_1/efficientnetv2-b0_1/block4a_bn_1/Cast_5", "StatefulPartitionedCall/clean_plant_model_1/efficientnetv2-b0_1/block4a_activation_1/Sigmoid"], "attr": {"T": {"type": "DT_HALF"}}}, {"name": "StatefulPartitionedCall/clean_plant_model_1/efficientnetv2-b0_1/block4a_se_squeeze_1/Cast", "op": "Cast", "input": ["StatefulPartitionedCall/clean_plant_model_1/efficientnetv2-b0_1/block4a_activation_1/mul_1"], "attr": {"SrcT": {"type": "DT_HALF"}, "DstT": {"type": "DT_FLOAT"}, "Truncate": {"b": false}}}, {"name": "StatefulPartitionedCall/clean_plant_model_1/efficientnetv2-b0_1/block4a_se_squeeze_1/Mean", "op": "Mean", "input": ["StatefulPartitionedCall/clean_plant_model_1/efficientnetv2-b0_1/block4a_se_squeeze_1/Cast", "StatefulPartitionedCall/clean_plant_model_1/efficientnetv2-b0_1/block4a_se_squeeze_1/Mean/reduction_indices"], "attr": {"T": {"type": "DT_FLOAT"}, "Tidx": {"type": "DT_INT32"}, "keep_dims": {"b": false}}}, {"name": "StatefulPartitionedCall/clean_plant_model_1/efficientnetv2-b0_1/block4a_se_squeeze_1/Cast_1", "op": "Cast", "input": ["StatefulPartitionedCall/clean_plant_model_1/efficientnetv2-b0_1/block4a_se_squeeze_1/Mean"], "attr": {"SrcT": {"type": "DT_FLOAT"}, "DstT": {"type": "DT_HALF"}, "Truncate": {"b": false}}}, {"name": "StatefulPartitionedCall/clean_plant_model_1/efficientnetv2-b0_1/block4a_se_reshape_1/Shape", "op": "Shape", "input": ["StatefulPartitionedCall/clean_plant_model_1/efficientnetv2-b0_1/block4a_se_squeeze_1/Cast_1"], "attr": {"T": {"type": "DT_HALF"}, "out_type": {"type": "DT_INT32"}}, "experimentalType": {"typeId": "TFT_PRODUCT", "args": [{"typeId": "TFT_SHAPE_TENSOR", "args": [{"typeId": "TFT_INT32"}]}]}}, {"name": "StatefulPartitionedCall/clean_plant_model_1/efficientnetv2-b0_1/block4a_se_reshape_1/strided_slice", "op": "StridedSlice", "input": ["StatefulPartitionedCall/clean_plant_model_1/efficientnetv2-b0_1/block4a_se_reshape_1/Shape", "StatefulPartitionedCall/clean_plant_model_1/efficientnetv2-b0_1/block4a_se_reshape_1/strided_slice/stack", "StatefulPartitionedCall/clean_plant_model_1/efficientnetv2-b0_1/block4a_se_reshape_1/strided_slice/stack_1", "StatefulPartitionedCall/clean_plant_model_1/efficientnetv2-b0_1/block4a_se_reshape_1/strided_slice/stack_2"], "attr": {"shrink_axis_mask": {"i": "1"}, "new_axis_mask": {"i": "0"}, "Index": {"type": "DT_INT32"}, "begin_mask": {"i": "0"}, "T": {"type": "DT_INT32"}, "end_mask": {"i": "0"}, "ellipsis_mask": {"i": "0"}}}, {"name": "StatefulPartitionedCall/clean_plant_model_1/efficientnetv2-b0_1/block4a_se_reshape_1/Reshape/shape", "op": "Pack", "input": ["StatefulPartitionedCall/clean_plant_model_1/efficientnetv2-b0_1/block4a_se_reshape_1/strided_slice", "StatefulPartitionedCall/clean_plant_model_1/efficientnetv2-b0_1/block4a_se_reshape_1/Reshape/shape/1", "StatefulPartitionedCall/clean_plant_model_1/efficientnetv2-b0_1/block4a_se_reshape_1/Reshape/shape/2", "StatefulPartitionedCall/clean_plant_model_1/efficientnetv2-b0_1/block4a_se_reshape_1/Reshape/shape/3"], "attr": {"N": {"i": "4"}, "axis": {"i": "0"}, "T": {"type": "DT_INT32"}}}, {"name": "StatefulPartitionedCall/clean_plant_model_1/efficientnetv2-b0_1/block4a_se_reshape_1/Reshape", "op": "Reshape", "input": ["StatefulPartitionedCall/clean_plant_model_1/efficientnetv2-b0_1/block4a_se_squeeze_1/Cast_1", "StatefulPartitionedCall/clean_plant_model_1/efficientnetv2-b0_1/block4a_se_reshape_1/Reshape/shape"], "attr": {"T": {"type": "DT_HALF"}, "Tshape": {"type": "DT_INT32"}}}, {"name": "StatefulPartitionedCall/clean_plant_model_1/efficientnetv2-b0_1/block4a_se_reduce_1/convolution", "op": "Conv2D", "input": ["StatefulPartitionedCall/clean_plant_model_1/efficientnetv2-b0_1/block4a_se_reshape_1/Reshape", "StatefulPartitionedCall/clean_plant_model_1/efficientnetv2-b0_1/block4a_se_reduce_1/convolution/Cast"], "device": "/device:CPU:0", "attr": {"padding": {"s": "U0FNRQ=="}, "data_format": {"s": "TkhXQw=="}, "_input_shapes": {"list": {"shape": [{"dim": [{"size": "-2"}, {"size": "1"}, {"size": "1"}, {"size": "192"}]}, {"dim": [{"size": "1"}, {"size": "1"}, {"size": "192"}, {"size": "12"}]}]}}, "use_cudnn_on_gpu": {"b": true}, "strides": {"list": {"i": ["1", "1", "1", "1"]}}, "T": {"type": "DT_HALF"}, "explicit_paddings": {"list": {}}, "dilations": {"list": {"i": ["1", "1", "1", "1"]}}}}, {"name": "StatefulPartitionedCall/clean_plant_model_1/efficientnetv2-b0_1/block4a_se_reduce_1/BiasAdd", "op": "BiasAdd", "input": ["StatefulPartitionedCall/clean_plant_model_1/efficientnetv2-b0_1/block4a_se_reduce_1/convolution", "StatefulPartitionedCall/clean_plant_model_1/efficientnetv2-b0_1/block4a_se_reduce_1/Squeeze"], "attr": {"data_format": {"s": "TkhXQw=="}, "T": {"type": "DT_HALF"}, "_input_shapes": {"list": {"shape": [{"dim": [{"size": "-2"}, {"size": "1"}, {"size": "1"}, {"size": "12"}]}, {"dim": [{"size": "12"}]}]}}}}, {"name": "StatefulPartitionedCall/clean_plant_model_1/efficientnetv2-b0_1/block4a_se_reduce_1/Sigmoid", "op": "Sigmoid", "input": ["StatefulPartitionedCall/clean_plant_model_1/efficientnetv2-b0_1/block4a_se_reduce_1/BiasAdd"], "attr": {"_input_shapes": {"list": {"shape": [{"dim": [{"size": "-2"}, {"size": "1"}, {"size": "1"}, {"size": "12"}]}]}}, "T": {"type": "DT_HALF"}}}, {"name": "StatefulPartitionedCall/clean_plant_model_1/efficientnetv2-b0_1/block4a_se_reduce_1/mul_1", "op": "Mul", "input": ["StatefulPartitionedCall/clean_plant_model_1/efficientnetv2-b0_1/block4a_se_reduce_1/BiasAdd", "StatefulPartitionedCall/clean_plant_model_1/efficientnetv2-b0_1/block4a_se_reduce_1/Sigmoid"], "attr": {"T": {"type": "DT_HALF"}}}, {"name": "StatefulPartitionedCall/clean_plant_model_1/efficientnetv2-b0_1/block4a_se_expand_1/convolution", "op": "Conv2D", "input": ["StatefulPartitionedCall/clean_plant_model_1/efficientnetv2-b0_1/block4a_se_reduce_1/mul_1", "StatefulPartitionedCall/clean_plant_model_1/efficientnetv2-b0_1/block4a_se_expand_1/convolution/Cast"], "device": "/device:CPU:0", "attr": {"padding": {"s": "U0FNRQ=="}, "data_format": {"s": "TkhXQw=="}, "_input_shapes": {"list": {"shape": [{"dim": [{"size": "-2"}, {"size": "1"}, {"size": "1"}, {"size": "12"}]}, {"dim": [{"size": "1"}, {"size": "1"}, {"size": "12"}, {"size": "192"}]}]}}, "strides": {"list": {"i": ["1", "1", "1", "1"]}}, "use_cudnn_on_gpu": {"b": true}, "T": {"type": "DT_HALF"}, "explicit_paddings": {"list": {}}, "dilations": {"list": {"i": ["1", "1", "1", "1"]}}}}, {"name": "StatefulPartitionedCall/clean_plant_model_1/efficientnetv2-b0_1/block4a_se_expand_1/BiasAdd", "op": "BiasAdd", "input": ["StatefulPartitionedCall/clean_plant_model_1/efficientnetv2-b0_1/block4a_se_expand_1/convolution", "StatefulPartitionedCall/clean_plant_model_1/efficientnetv2-b0_1/block4a_se_expand_1/Squeeze"], "attr": {"_input_shapes": {"list": {"shape": [{"dim": [{"size": "-2"}, {"size": "1"}, {"size": "1"}, {"size": "192"}]}, {"dim": [{"size": "192"}]}]}}, "T": {"type": "DT_HALF"}, "data_format": {"s": "TkhXQw=="}}}, {"name": "StatefulPartitionedCall/clean_plant_model_1/efficientnetv2-b0_1/block4a_se_expand_1/Sigmoid", "op": "Sigmoid", "input": ["StatefulPartitionedCall/clean_plant_model_1/efficientnetv2-b0_1/block4a_se_expand_1/BiasAdd"], "attr": {"_input_shapes": {"list": {"shape": [{"dim": [{"size": "-2"}, {"size": "1"}, {"size": "1"}, {"size": "192"}]}]}}, "T": {"type": "DT_HALF"}}}, {"name": "StatefulPartitionedCall/clean_plant_model_1/efficientnetv2-b0_1/block4a_se_excite_1/Mul", "op": "Mul", "input": ["StatefulPartitionedCall/clean_plant_model_1/efficientnetv2-b0_1/block4a_activation_1/mul_1", "StatefulPartitionedCall/clean_plant_model_1/efficientnetv2-b0_1/block4a_se_expand_1/Sigmoid"], "attr": {"T": {"type": "DT_HALF"}}}, {"name": "StatefulPartitionedCall/clean_plant_model_1/efficientnetv2-b0_1/block4a_project_conv_1/convolution", "op": "Conv2D", "input": ["StatefulPartitionedCall/clean_plant_model_1/efficientnetv2-b0_1/block4a_se_excite_1/Mul", "StatefulPartitionedCall/clean_plant_model_1/efficientnetv2-b0_1/block4a_project_conv_1/convolution/Cast"], "device": "/device:CPU:0", "attr": {"padding": {"s": "U0FNRQ=="}, "data_format": {"s": "TkhXQw=="}, "_input_shapes": {"list": {"shape": [{"dim": [{"size": "-2"}, {"size": "-12"}, {"size": "-13"}, {"size": "192"}]}, {"dim": [{"size": "1"}, {"size": "1"}, {"size": "192"}, {"size": "96"}]}]}}, "strides": {"list": {"i": ["1", "1", "1", "1"]}}, "use_cudnn_on_gpu": {"b": true}, "T": {"type": "DT_HALF"}, "explicit_paddings": {"list": {}}, "dilations": {"list": {"i": ["1", "1", "1", "1"]}}}}, {"name": "StatefulPartitionedCall/clean_plant_model_1/efficientnetv2-b0_1/block4a_project_bn_1/Cast", "op": "Cast", "input": ["StatefulPartitionedCall/clean_plant_model_1/efficientnetv2-b0_1/block4a_project_conv_1/convolution"], "attr": {"SrcT": {"type": "DT_HALF"}, "DstT": {"type": "DT_FLOAT"}, "Truncate": {"b": false}}}, {"name": "StatefulPartitionedCall/clean_plant_model_1/efficientnetv2-b0_1/block4a_project_bn_1/batchnorm/mul_1", "op": "Mul", "input": ["StatefulPartitionedCall/clean_plant_model_1/efficientnetv2-b0_1/block4a_project_bn_1/Cast", "StatefulPartitionedCall/clean_plant_model_1/efficientnetv2-b0_1/block4a_project_bn_1/batchnorm/mul"], "attr": {"T": {"type": "DT_FLOAT"}}}, {"name": "StatefulPartitionedCall/clean_plant_model_1/efficientnetv2-b0_1/block4a_project_bn_1/batchnorm/add_1", "op": "AddV2", "input": ["StatefulPartitionedCall/clean_plant_model_1/efficientnetv2-b0_1/block4a_project_bn_1/batchnorm/mul_1", "StatefulPartitionedCall/clean_plant_model_1/efficientnetv2-b0_1/block4a_project_bn_1/batchnorm/sub"], "attr": {"T": {"type": "DT_FLOAT"}}}, {"name": "StatefulPartitionedCall/clean_plant_model_1/efficientnetv2-b0_1/block4a_project_bn_1/Cast_5", "op": "Cast", "input": ["StatefulPartitionedCall/clean_plant_model_1/efficientnetv2-b0_1/block4a_project_bn_1/batchnorm/add_1"], "attr": {"SrcT": {"type": "DT_FLOAT"}, "DstT": {"type": "DT_HALF"}, "Truncate": {"b": false}}}, {"name": "StatefulPartitionedCall/clean_plant_model_1/efficientnetv2-b0_1/block4b_expand_conv_1/convolution", "op": "Conv2D", "input": ["StatefulPartitionedCall/clean_plant_model_1/efficientnetv2-b0_1/block4a_project_bn_1/Cast_5", "StatefulPartitionedCall/clean_plant_model_1/efficientnetv2-b0_1/block4b_expand_conv_1/convolution/Cast"], "device": "/device:CPU:0", "attr": {"padding": {"s": "U0FNRQ=="}, "data_format": {"s": "TkhXQw=="}, "_input_shapes": {"list": {"shape": [{"dim": [{"size": "-2"}, {"size": "-12"}, {"size": "-13"}, {"size": "96"}]}, {"dim": [{"size": "1"}, {"size": "1"}, {"size": "96"}, {"size": "384"}]}]}}, "use_cudnn_on_gpu": {"b": true}, "strides": {"list": {"i": ["1", "1", "1", "1"]}}, "T": {"type": "DT_HALF"}, "explicit_paddings": {"list": {}}, "dilations": {"list": {"i": ["1", "1", "1", "1"]}}}}, {"name": "StatefulPartitionedCall/clean_plant_model_1/efficientnetv2-b0_1/block4b_expand_bn_1/Cast", "op": "Cast", "input": ["StatefulPartitionedCall/clean_plant_model_1/efficientnetv2-b0_1/block4b_expand_conv_1/convolution"], "attr": {"SrcT": {"type": "DT_HALF"}, "DstT": {"type": "DT_FLOAT"}, "Truncate": {"b": false}}}, {"name": "StatefulPartitionedCall/clean_plant_model_1/efficientnetv2-b0_1/block4b_expand_bn_1/batchnorm/mul_1", "op": "Mul", "input": ["StatefulPartitionedCall/clean_plant_model_1/efficientnetv2-b0_1/block4b_expand_bn_1/Cast", "StatefulPartitionedCall/clean_plant_model_1/efficientnetv2-b0_1/block4b_expand_bn_1/batchnorm/mul"], "attr": {"T": {"type": "DT_FLOAT"}}}, {"name": "StatefulPartitionedCall/clean_plant_model_1/efficientnetv2-b0_1/block4b_expand_bn_1/batchnorm/add_1", "op": "AddV2", "input": ["StatefulPartitionedCall/clean_plant_model_1/efficientnetv2-b0_1/block4b_expand_bn_1/batchnorm/mul_1", "StatefulPartitionedCall/clean_plant_model_1/efficientnetv2-b0_1/block4b_expand_bn_1/batchnorm/sub"], "attr": {"T": {"type": "DT_FLOAT"}}}, {"name": "StatefulPartitionedCall/clean_plant_model_1/efficientnetv2-b0_1/block4b_expand_bn_1/Cast_5", "op": "Cast", "input": ["StatefulPartitionedCall/clean_plant_model_1/efficientnetv2-b0_1/block4b_expand_bn_1/batchnorm/add_1"], "attr": {"SrcT": {"type": "DT_FLOAT"}, "DstT": {"type": "DT_HALF"}, "Truncate": {"b": false}}}, {"name": "StatefulPartitionedCall/clean_plant_model_1/efficientnetv2-b0_1/block4b_expand_activation_1/Sigmoid", "op": "Sigmoid", "input": ["StatefulPartitionedCall/clean_plant_model_1/efficientnetv2-b0_1/block4b_expand_bn_1/Cast_5"], "attr": {"_input_shapes": {"list": {"shape": [{"dim": [{"size": "-2"}, {"size": "-12"}, {"size": "-13"}, {"size": "384"}]}]}}, "T": {"type": "DT_HALF"}}}, {"name": "StatefulPartitionedCall/clean_plant_model_1/efficientnetv2-b0_1/block4b_expand_activation_1/mul_1", "op": "Mul", "input": ["StatefulPartitionedCall/clean_plant_model_1/efficientnetv2-b0_1/block4b_expand_bn_1/Cast_5", "StatefulPartitionedCall/clean_plant_model_1/efficientnetv2-b0_1/block4b_expand_activation_1/Sigmoid"], "attr": {"T": {"type": "DT_HALF"}}}, {"name": "StatefulPartitionedCall/clean_plant_model_1/efficientnetv2-b0_1/block4b_dwconv2_1/depthwise", "op": "DepthwiseConv2dNative", "input": ["StatefulPartitionedCall/clean_plant_model_1/efficientnetv2-b0_1/block4b_expand_activation_1/mul_1", "StatefulPartitionedCall/clean_plant_model_1/efficientnetv2-b0_1/block4b_dwconv2_1/depthwise/Cast"], "attr": {"padding": {"s": "U0FNRQ=="}, "data_format": {"s": "TkhXQw=="}, "_input_shapes": {"list": {"shape": [{"dim": [{"size": "-2"}, {"size": "-12"}, {"size": "-13"}, {"size": "384"}]}, {"dim": [{"size": "3"}, {"size": "3"}, {"size": "384"}, {"size": "1"}]}]}}, "strides": {"list": {"i": ["1", "1", "1", "1"]}}, "T": {"type": "DT_HALF"}, "explicit_paddings": {"list": {}}, "dilations": {"list": {"i": ["1", "1", "1", "1"]}}}}, {"name": "StatefulPartitionedCall/clean_plant_model_1/efficientnetv2-b0_1/block4b_bn_1/Cast", "op": "Cast", "input": ["StatefulPartitionedCall/clean_plant_model_1/efficientnetv2-b0_1/block4b_dwconv2_1/depthwise"], "attr": {"SrcT": {"type": "DT_HALF"}, "DstT": {"type": "DT_FLOAT"}, "Truncate": {"b": false}}}, {"name": "StatefulPartitionedCall/clean_plant_model_1/efficientnetv2-b0_1/block4b_bn_1/batchnorm/mul_1", "op": "Mul", "input": ["StatefulPartitionedCall/clean_plant_model_1/efficientnetv2-b0_1/block4b_bn_1/Cast", "StatefulPartitionedCall/clean_plant_model_1/efficientnetv2-b0_1/block4b_bn_1/batchnorm/mul"], "attr": {"T": {"type": "DT_FLOAT"}}}, {"name": "StatefulPartitionedCall/clean_plant_model_1/efficientnetv2-b0_1/block4b_bn_1/batchnorm/add_1", "op": "AddV2", "input": ["StatefulPartitionedCall/clean_plant_model_1/efficientnetv2-b0_1/block4b_bn_1/batchnorm/mul_1", "StatefulPartitionedCall/clean_plant_model_1/efficientnetv2-b0_1/block4b_bn_1/batchnorm/sub"], "attr": {"T": {"type": "DT_FLOAT"}}}, {"name": "StatefulPartitionedCall/clean_plant_model_1/efficientnetv2-b0_1/block4b_bn_1/Cast_5", "op": "Cast", "input": ["StatefulPartitionedCall/clean_plant_model_1/efficientnetv2-b0_1/block4b_bn_1/batchnorm/add_1"], "attr": {"SrcT": {"type": "DT_FLOAT"}, "DstT": {"type": "DT_HALF"}, "Truncate": {"b": false}}}, {"name": "StatefulPartitionedCall/clean_plant_model_1/efficientnetv2-b0_1/block…
], "dtype": "int32"}, {"name": "StatefulPartitionedCall/clean_plant_model_1/efficientnetv2-b0_1/block6g_se_reshape_1/Reshape/shape/3", "shape": [], "dtype": "int32"}, {"name": "StatefulPartitionedCall/clean_plant_model_1/efficientnetv2-b0_1/block6g_se_reduce_1/convolution/Cast", "shape": [1, 1, 1152, 48], "dtype": "float32"}, {"name": "StatefulPartitionedCall/clean_plant_model_1/efficientnetv2-b0_1/block6g_se_reduce_1/Squeeze", "shape": [48], "dtype": "float32"}, {"name": "StatefulPartitionedCall/clean_plant_model_1/efficientnetv2-b0_1/block6g_se_expand_1/convolution/Cast", "shape": [1, 1, 48, 1152], "dtype": "float32"}, {"name": "StatefulPartitionedCall/clean_plant_model_1/efficientnetv2-b0_1/block6g_se_expand_1/Squeeze", "shape": [1152], "dtype": "float32"}, {"name": "StatefulPartitionedCall/clean_plant_model_1/efficientnetv2-b0_1/block6g_project_conv_1/convolution/Cast", "shape": [1, 1, 1152, 192], "dtype": "float32"}, {"name": "StatefulPartitionedCall/clean_plant_model_1/efficientnetv2-b0_1/block6g_project_bn_1/batchnorm/mul", "shape": [1, 1, 1, 192], "dtype": "float32"}, {"name": "StatefulPartitionedCall/clean_plant_model_1/efficientnetv2-b0_1/block6g_project_bn_1/batchnorm/sub", "shape": [1, 1, 1, 192], "dtype": "float32"}, {"name": "StatefulPartitionedCall/clean_plant_model_1/efficientnetv2-b0_1/block6f_expand_conv_1/convolution/Cast", "shape": [1, 1, 192, 1152], "dtype": "float32"}, {"name": "StatefulPartitionedCall/clean_plant_model_1/efficientnetv2-b0_1/block6f_expand_bn_1/batchnorm/mul", "shape": [1, 1, 1, 1152], "dtype": "float32"}, {"name": "StatefulPartitionedCall/clean_plant_model_1/efficientnetv2-b0_1/block6f_expand_bn_1/batchnorm/sub", "shape": [1, 1, 1, 1152], "dtype": "float32"}, {"name": "StatefulPartitionedCall/clean_plant_model_1/efficientnetv2-b0_1/block6f_dwconv2_1/depthwise/Cast", "shape": [3, 3, 1152, 1], "dtype": "float32"}, {"name": "StatefulPartitionedCall/clean_plant_model_1/efficientnetv2-b0_1/block6f_bn_1/batchnorm/mul", "shape": [1, 1, 1, 1152], "dtype": "float32"}, {"name": "StatefulPartitionedCall/clean_plant_model_1/efficientnetv2-b0_1/block6f_bn_1/batchnorm/sub", "shape": [1, 1, 1, 1152], "dtype": "float32"}, {"name": "StatefulPartitionedCall/clean_plant_model_1/efficientnetv2-b0_1/block6f_se_squeeze_1/Mean/reduction_indices", "shape": [2], "dtype": "int32"}, {"name": "StatefulPartitionedCall/clean_plant_model_1/efficientnetv2-b0_1/block6f_se_reshape_1/strided_slice/stack", "shape": [1], "dtype": "int32"}, {"name": "StatefulPartitionedCall/clean_plant_model_1/efficientnetv2-b0_1/block6f_se_reshape_1/strided_slice/stack_1", "shape": [1], "dtype": "int32"}, {"name": "StatefulPartitionedCall/clean_plant_model_1/efficientnetv2-b0_1/block6f_se_reshape_1/strided_slice/stack_2", "shape": [1], "dtype": "int32"}, {"name": "StatefulPartitionedCall/clean_plant_model_1/efficientnetv2-b0_1/block6f_se_reshape_1/Reshape/shape/1", "shape": [], "dtype": "int32"}, {"name": "StatefulPartitionedCall/clean_plant_model_1/efficientnetv2-b0_1/block6f_se_reshape_1/Reshape/shape/2", "shape": [], "dtype": "int32"}, {"name": "StatefulPartitionedCall/clean_plant_model_1/efficientnetv2-b0_1/block6f_se_reshape_1/Reshape/shape/3", "shape": [], "dtype": "int32"}, {"name": "StatefulPartitionedCall/clean_plant_model_1/efficientnetv2-b0_1/block6f_se_reduce_1/convolution/Cast", "shape": [1, 1, 1152, 48], "dtype": "float32"}, {"name": "StatefulPartitionedCall/clean_plant_model_1/efficientnetv2-b0_1/block6f_se_reduce_1/Squeeze", "shape": [48], "dtype": "float32"}, {"name": "StatefulPartitionedCall/clean_plant_model_1/efficientnetv2-b0_1/block6f_se_expand_1/convolution/Cast", "shape": [1, 1, 48, 1152], "dtype": "float32"}, {"name": "StatefulPartitionedCall/clean_plant_model_1/efficientnetv2-b0_1/block6f_se_expand_1/Squeeze", "shape": [1152], "dtype": "float32"}, {"name": "StatefulPartitionedCall/clean_plant_model_1/efficientnetv2-b0_1/block6f_project_conv_1/convolution/Cast", "shape": [1, 1, 1152, 192], "dtype": "float32"}, {"name": "StatefulPartitionedCall/clean_plant_model_1/efficientnetv2-b0_1/block6f_project_bn_1/batchnorm/mul", "shape": [1, 1, 1, 192], "dtype": "float32"}, {"name": "StatefulPartitionedCall/clean_plant_model_1/efficientnetv2-b0_1/block6f_project_bn_1/batchnorm/sub", "shape": [1, 1, 1, 192], "dtype": "float32"}, {"name": "StatefulPartitionedCall/clean_plant_model_1/efficientnetv2-b0_1/block6e_expand_conv_1/convolution/Cast", "shape": [1, 1, 192, 1152], "dtype": "float32"}, {"name": "StatefulPartitionedCall/clean_plant_model_1/efficientnetv2-b0_1/block6e_expand_bn_1/batchnorm/mul", "shape": [1, 1, 1, 1152], "dtype": "float32"}, {"name": "StatefulPartitionedCall/clean_plant_model_1/efficientnetv2-b0_1/block6e_expand_bn_1/batchnorm/sub", "shape": [1, 1, 1, 1152], "dtype": "float32"}, {"name": "StatefulPartitionedCall/clean_plant_model_1/efficientnetv2-b0_1/block6e_dwconv2_1/depthwise/Cast", "shape": [3, 3, 1152, 1], "dtype": "float32"}, {"name": "StatefulPartitionedCall/clean_plant_model_1/efficientnetv2-b0_1/block6e_bn_1/batchnorm/mul", "shape": [1, 1, 1, 1152], "dtype": "float32"}, {"name": "StatefulPartitionedCall/clean_plant_model_1/efficientnetv2-b0_1/block6e_bn_1/batchnorm/sub", "shape": [1, 1, 1, 1152], "dtype": "float32"}, {"name": "StatefulPartitionedCall/clean_plant_model_1/efficientnetv2-b0_1/block6e_se_squeeze_1/Mean/reduction_indices", "shape": [2], "dtype": "int32"}, {"name": "StatefulPartitionedCall/clean_plant_model_1/efficientnetv2-b0_1/block6e_se_reshape_1/strided_slice/stack", "shape": [1], "dtype": "int32"}, {"name": "StatefulPartitionedCall/clean_plant_model_1/efficientnetv2-b0_1/block6e_se_reshape_1/strided_slice/stack_1", "shape": [1], "dtype": "int32"}, {"name": "StatefulPartitionedCall/clean_plant_model_1/efficientnetv2-b0_1/block6e_se_reshape_1/strided_slice/stack_2", "shape": [1], "dtype": "int32"}, {"name": "StatefulPartitionedCall/clean_plant_model_1/efficientnetv2-b0_1/block6e_se_reshape_1/Reshape/shape/1", "shape": [], "dtype": "int32"}, {"name": "StatefulPartitionedCall/clean_plant_model_1/efficientnetv2-b0_1/block6e_se_reshape_1/Reshape/shape/2", "shape": [], "dtype": "int32"}, {"name": "StatefulPartitionedCall/clean_plant_model_1/efficientnetv2-b0_1/block6e_se_reshape_1/Reshape/shape/3", "shape": [], "dtype": "int32"}, {"name": "StatefulPartitionedCall/clean_plant_model_1/efficientnetv2-b0_1/block6e_se_reduce_1/convolution/Cast", "shape": [1, 1, 1152, 48], "dtype": "float32"}, {"name": "StatefulPartitionedCall/clean_plant_model_1/efficientnetv2-b0_1/block6e_se_reduce_1/Squeeze", "shape": [48], "dtype": "float32"}, {"name": "StatefulPartitionedCall/clean_plant_model_1/efficientnetv2-b0_1/block6e_se_expand_1/convolution/Cast", "shape": [1, 1, 48, 1152], "dtype": "float32"}, {"name": "StatefulPartitionedCall/clean_plant_model_1/efficientnetv2-b0_1/block6e_se_expand_1/Squeeze", "shape": [1152], "dtype": "float32"}, {"name": "StatefulPartitionedCall/clean_plant_model_1/efficientnetv2-b0_1/block6e_project_conv_1/convolution/Cast", "shape": [1, 1, 1152, 192], "dtype": "float32"}, {"name": "StatefulPartitionedCall/clean_plant_model_1/efficientnetv2-b0_1/block6e_project_bn_1/batchnorm/mul", "shape": [1, 1, 1, 192], "dtype": "float32"}, {"name": "StatefulPartitionedCall/clean_plant_model_1/efficientnetv2-b0_1/block6e_project_bn_1/batchnorm/sub", "shape": [1, 1, 1, 192], "dtype": "float32"}, {"name": "StatefulPartitionedCall/clean_plant_model_1/efficientnetv2-b0_1/block6d_expand_conv_1/convolution/Cast", "shape": [1, 1, 192, 1152], "dtype": "float32"}, {"name": "StatefulPartitionedCall/clean_plant_model_1/efficientnetv2-b0_1/block6d_expand_bn_1/batchnorm/mul", "shape": [1, 1, 1, 1152], "dtype": "float32"}, {"name": "StatefulPartitionedCall/clean_plant_model_1/efficientnetv2-b0_1/block6d_expand_bn_1/batchnorm/sub", "shape": [1, 1, 1, 1152], "dtype": "float32"}, {"name": "StatefulPartitionedCall/clean_plant_model_1/efficientnetv2-b0_1/block6d_dwconv2_1/depthwise/Cast", "shape": [3, 3, 1152, 1], "dtype": "float32"}, {"name": "StatefulPartitionedCall/clean_plant_model_1/efficientnetv2-b0_1/block6d_bn_1/batchnorm/mul", "shape": [1, 1, 1, 1152], "dtype": "float32"}, {"name": "StatefulPartitionedCall/clean_plant_model_1/efficientnetv2-b0_1/block6d_bn_1/batchnorm/sub", "shape": [1, 1, 1, 1152], "dtype": "float32"}, {"name": "StatefulPartitionedCall/clean_plant_model_1/efficientnetv2-b0_1/block6d_se_squeeze_1/Mean/reduction_indices", "shape": [2], "dtype": "int32"}, {"name": "StatefulPartitionedCall/clean_plant_model_1/efficientnetv2-b0_1/block6d_se_reshape_1/strided_slice/stack", "shape": [1], "dtype": "int32"}, {"name": "StatefulPartitionedCall/clean_plant_model_1/efficientnetv2-b0_1/block6d_se_reshape_1/strided_slice/stack_1", "shape": [1], "dtype": "int32"}, {"name": "StatefulPartitionedCall/clean_plant_model_1/efficientnetv2-b0_1/block6d_se_reshape_1/strided_slice/stack_2", "shape": [1], "dtype": "int32"}, {"name": "StatefulPartitionedCall/clean_plant_model_1/efficientnetv2-b0_1/block6d_se_reshape_1/Reshape/shape/1", "shape": [], "dtype": "int32"}, {"name": "StatefulPartitionedCall/clean_plant_model_1/efficientnetv2-b0_1/block6d_se_reshape_1/Reshape/shape/2", "shape": [], "dtype": "int32"}, {"name": "StatefulPartitionedCall/clean_plant_model_1/efficientnetv2-b0_1/block6d_se_reshape_1/Reshape/shape/3", "shape": [], "dtype": "int32"}, {"name": "StatefulPartitionedCall/clean_plant_model_1/efficientnetv2-b0_1/block6d_se_reduce_1/convolution/Cast", "shape": [1, 1, 1152, 48], "dtype": "float32"}, {"name": "StatefulPartitionedCall/clean_plant_model_1/efficientnetv2-b0_1/block6d_se_reduce_1/Squeeze", "shape": [48], "dtype": "float32"}, {"name": "StatefulPartitionedCall/clean_plant_model_1/efficientnetv2-b0_1/block6d_se_expand_1/convolution/Cast", "shape": [1, 1, 48, 1152], "dtype": "float32"}, {"name": "StatefulPartitionedCall/clean_plant_model_1/efficientnetv2-b0_1/block6d_se_expand_1/Squeeze", "shape": [1152], "dtype": "float32"}, {"name": "StatefulPartitionedCall/clean_plant_model_1/efficientnetv2-b0_1/block6d_project_conv_1/convolution/Cast", "shape": [1, 1, 1152, 192], "dtype": "float32"}, {"name": "StatefulPartitionedCall/clean_plant_model_1/efficientnetv2-b0_1/block6d_project_bn_1/batchnorm/mul", "shape": [1, 1, 1, 192], "dtype": "float32"}, {"name": "StatefulPartitionedCall/clean_plant_model_1/efficientnetv2-b0_1/block6d_project_bn_1/batchnorm/sub", "shape": [1, 1, 1, 192], "dtype": "float32"}, {"name": "StatefulPartitionedCall/clean_plant_model_1/efficientnetv2-b0_1/block6c_expand_conv_1/convolution/Cast", "shape": [1, 1, 192, 1152], "dtype": "float32"}, {"name": "StatefulPartitionedCall/clean_plant_model_1/efficientnetv2-b0_1/block6c_expand_bn_1/batchnorm/mul", "shape": [1, 1, 1, 1152], "dtype": "float32"}, {"name": "StatefulPartitionedCall/clean_plant_model_1/efficientnetv2-b0_1/block6c_expand_bn_1/batchnorm/sub", "shape": [1, 1, 1, 1152], "dtype": "float32"}, {"name": "StatefulPartitionedCall/clean_plant_model_1/efficientnetv2-b0_1/block6c_dwconv2_1/depthwise/Cast", "shape": [3, 3, 1152, 1], "dtype": "float32"}, {"name": "StatefulPartitionedCall/clean_plant_model_1/efficientnetv2-b0_1/block6c_bn_1/batchnorm/mul", "shape": [1, 1, 1, 1152], "dtype": "float32"}, {"name": "StatefulPartitionedCall/clean_plant_model_1/efficientnetv2-b0_1/block6c_bn_1/batchnorm/sub", "shape": [1, 1, 1, 1152], "dtype": "float32"}, {"name": "StatefulPartitionedCall/clean_plant_model_1/efficientnetv2-b0_1/block6c_se_squeeze_1/Mean/reduction_indices", "shape": [2], "dtype": "int32"}, {"name": "StatefulPartitionedCall/clean_plant_model_1/efficientnetv2-b0_1/block6c_se_reshape_1/strided_slice/stack", "shape": [1], "dtype": "int32"}, {"name": "StatefulPartitionedCall/clean_plant_model_1/efficientnetv2-b0_1/block6c_se_reshape_1/strided_slice/stack_1", "shape": [1], "dtype": "int32"}, {"name": "StatefulPartitionedCall/clean_plant_model_1/efficientnetv2-b0_1/block6c_se_reshape_1/strided_slice/stack_2", "shape": [1], "dtype": "int32"}, {"name": "StatefulPartitionedCall/clean_plant_model_1/efficientnetv2-b0_1/block6c_se_reshape_1/Reshape/shape/1", "shape": [], "dtype": "int32"}, {"name": "StatefulPartitionedCall/clean_plant_model_1/efficientnetv2-b0_1/block6c_se_reshape_1/Reshape/shape/2", "shape": [], "dtype": "int32"}, {"name": "StatefulPartitionedCall/clean_plant_model_1/efficientnetv2-b0_1/block6c_se_reshape_1/Reshape/shape/3", "shape": [], "dtype": "int32"}, {"name": "StatefulPartitionedCall/clean_plant_model_1/efficientnetv2-b0_1/block6c_se_reduce_1/convolution/Cast", "shape": [1, 1, 1152, 48], "dtype": "float32"}, {"name": "StatefulPartitionedCall/clean_plant_model_1/efficientnetv2-b0_1/block6c_se_reduce_1/Squeeze", "shape": [48], "dtype": "float32"}, {"name": "StatefulPartitionedCall/clean_plant_model_1/efficientnetv2-b0_1/block6c_se_expand_1/convolution/Cast", "shape": [1, 1, 48, 1152], "dtype": "float32"}, {"name": "StatefulPartitionedCall/clean_plant_model_1/efficientnetv2-b0_1/block6c_se_expand_1/Squeeze", "shape": [1152], "dtype": "float32"}, {"name": "StatefulPartitionedCall/clean_plant_model_1/efficientnetv2-b0_1/block6c_project_conv_1/convolution/Cast", "shape": [1, 1, 1152, 192], "dtype": "float32"}, {"name": "StatefulPartitionedCall/clean_plant_model_1/efficientnetv2-b0_1/block6c_project_bn_1/batchnorm/mul", "shape": [1, 1, 1, 192], "dtype": "float32"}, {"name": "StatefulPartitionedCall/clean_plant_model_1/efficientnetv2-b0_1/block6c_project_bn_1/batchnorm/sub", "shape": [1, 1, 1, 192], "dtype": "float32"}, {"name": "StatefulPartitionedCall/clean_plant_model_1/efficientnetv2-b0_1/block6b_expand_conv_1/convolution/Cast", "shape": [1, 1, 192, 1152], "dtype": "float32"}, {"name": "StatefulPartitionedCall/clean_plant_model_1/efficientnetv2-b0_1/block6b_expand_bn_1/batchnorm/mul", "shape": [1, 1, 1, 1152], "dtype": "float32"}, {"name": "StatefulPartitionedCall/clean_plant_model_1/efficientnetv2-b0_1/block6b_expand_bn_1/batchnorm/sub", "shape": [1, 1, 1, 1152], "dtype": "float32"}, {"name": "StatefulPartitionedCall/clean_plant_model_1/efficientnetv2-b0_1/block6b_dwconv2_1/depthwise/Cast", "shape": [3, 3, 1152, 1], "dtype": "float32"}, {"name": "StatefulPartitionedCall/clean_plant_model_1/efficientnetv2-b0_1/block6b_bn_1/batchnorm/mul", "shape": [1, 1, 1, 1152], "dtype": "float32"}, {"name": "StatefulPartitionedCall/clean_plant_model_1/efficientnetv2-b0_1/block6b_bn_1/batchnorm/sub", "shape": [1, 1, 1, 1152], "dtype": "float32"}, {"name": "StatefulPartitionedCall/clean_plant_model_1/efficientnetv2-b0_1/block6b_se_squeeze_1/Mean/reduction_indices", "shape": [2], "dtype": "int32"}, {"name": "StatefulPartitionedCall/clean_plant_model_1/efficientnetv2-b0_1/block6b_se_reshape_1/strided_slice/stack", "shape": [1], "dtype": "int32"}, {"name": "StatefulPartitionedCall/clean_plant_model_1/efficientnetv2-b0_1/block6b_se_reshape_1/strided_slice/stack_1", "shape": [1], "dtype": "int32"}, {"name": "StatefulPartitionedCall/clean_plant_model_1/efficientnetv2-b0_1/block6b_se_reshape_1/strided_slice/stack_2", "shape": [1], "dtype": "int32"}, {"name": "StatefulPartitionedCall/clean_plant_model_1/efficientnetv2-b0_1/block6b_se_reshape_1/Reshape/shape/1", "shape": [], "dtype": "int32"}, {"name": "StatefulPartitionedCall/clean_plant_model_1/efficientnetv2-b0_1/block6b_se_reshape_1/Reshape/shape/2", "shape": [], "dtype": "int32"}, {"name": "StatefulPartitionedCall/clean_plant_model_1/efficientnetv2-b0_1/block6b_se_reshape_1/Reshape/shape/3", "shape": [], "dtype": "int32"}, {"name": "StatefulPartitionedCall/clean_plant_model_1/efficientnetv2-b0_1/block6b_se_reduce_1/convolution/Cast", "shape": [1, 1, 1152, 48], "dtype": "float32"}, {"name": "StatefulPartitionedCall/clean_plant_model_1/efficientnetv2-b0_1/block6b_se_reduce_1/Squeeze", "shape": [48], "dtype": "float32"}, {"name": "StatefulPartitionedCall/clean_plant_model_1/efficientnetv2-b0_1/block6b_se_expand_1/convolution/Cast", "shape": [1, 1, 48, 1152], "dtype": "float32"}, {"name": "StatefulPartitionedCall/clean_plant_model_1/efficientnetv2-b0_1/block6b_se_expand_1/Squeeze", "shape": [1152], "dtype": "float32"}, {"name": "StatefulPartitionedCall/clean_plant_model_1/efficientnetv2-b0_1/block6b_project_conv_1/convolution/Cast", "shape": [1, 1, 1152, 192], "dtype": "float32"}, {"name": "StatefulPartitionedCall/clean_plant_model_1/efficientnetv2-b0_1/block6b_project_bn_1/batchnorm/mul", "shape": [1, 1, 1, 192], "dtype": "float32"}, {"name": "StatefulPartitionedCall/clean_plant_model_1/efficientnetv2-b0_1/block6b_project_bn_1/batchnorm/sub", "shape": [1, 1, 1, 192], "dtype": "float32"}, {"name": "StatefulPartitionedCall/clean_plant_model_1/efficientnetv2-b0_1/block5e_expand_conv_1/convolution/Cast", "shape": [1, 1, 112, 672], "dtype": "float32"}, {"name": "StatefulPartitionedCall/clean_plant_model_1/efficientnetv2-b0_1/block5e_expand_bn_1/batchnorm/mul", "shape": [1, 1, 1, 672], "dtype": "float32"}, {"name": "StatefulPartitionedCall/clean_plant_model_1/efficientnetv2-b0_1/block5e_expand_bn_1/batchnorm/sub", "shape": [1, 1, 1, 672], "dtype": "float32"}, {"name": "StatefulPartitionedCall/clean_plant_model_1/efficientnetv2-b0_1/block5e_dwconv2_1/depthwise/Cast", "shape": [3, 3, 672, 1], "dtype": "float32"}, {"name": "StatefulPartitionedCall/clean_plant_model_1/efficientnetv2-b0_1/block5e_bn_1/batchnorm/mul", "shape": [1, 1, 1, 672], "dtype": "float32"}, {"name": "StatefulPartitionedCall/clean_plant_model_1/efficientnetv2-b0_1/block5e_bn_1/batchnorm/sub", "shape": [1, 1, 1, 672], "dtype": "float32"}, {"name": "StatefulPartitionedCall/clean_plant_model_1/efficientnetv2-b0_1/block5e_se_squeeze_1/Mean/reduction_indices", "shape": [2], "dtype": "int32"}, {"name": "StatefulPartitionedCall/clean_plant_model_1/efficientnetv2-b0_1/block5e_se_reshape_1/strided_slice/stack", "shape": [1], "dtype": "int32"}, {"name": "StatefulPartitionedCall/clean_plant_model_1/efficientnetv2-b0_1/block5e_se_reshape_1/strided_slice/stack_1", "shape": [1], "dtype": "int32"}, {"name": "StatefulPartitionedCall/clean_plant_model_1/efficientnetv2-b0_1/block5e_se_reshape_1/strided_slice/stack_2", "shape": [1], "dtype": "int32"}, {"name": "StatefulPartitionedCall/clean_plant_model_1/efficientnetv2-b0_1/block5e_se_reshape_1/Reshape/shape/1", "shape": [], "dtype": "int32"}, {"name": "StatefulPartitionedCall/clean_plant_model_1/efficientnetv2-b0_1/block5e_se_reshape_1/Reshape/shape/2", "shape": [], "dtype": "int32"}, {"name": "StatefulPartitionedCall/clean_plant_model_1/efficientnetv2-b0_1/block5e_se_reshape_1/Reshape/shape/3", "shape": [], "dtype": "int32"}, {"name": "StatefulPartitionedCall/clean_plant_model_1/efficientnetv2-b0_1/block5e_se_reduce_1/convolution/Cast", "shape": [1, 1, 672, 28], "dtype": "float32"}, {"name": "StatefulPartitionedCall/clean_plant_model_1/efficientnetv2-b0_1/block5e_se_reduce_1/Squeeze", "shape": [28], "dtype": "float32"}, {"name": "StatefulPartitionedCall/clean_plant_model_1/efficientnetv2-b0_1/block5e_se_expand_1/convolution/Cast", "shape": [1, 1, 28, 672], "dtype": "float32"}, {"name": "StatefulPartitionedCall/clean_plant_model_1/efficientnetv2-b0_1/block5e_se_expand_1/Squeeze", "shape": [672], "dtype": "float32"}, {"name": "StatefulPartitionedCall/clean_plant_model_1/efficientnetv2-b0_1/block5e_project_conv_1/convolution/Cast", "shape": [1, 1, 672, 112], "dtype": "float32"}, {"name": "StatefulPartitionedCall/clean_plant_model_1/efficientnetv2-b0_1/block5e_project_bn_1/batchnorm/mul", "shape": [1, 1, 1, 112], "dtype": "float32"}, {"name": "StatefulPartitionedCall/clean_plant_model_1/efficientnetv2-b0_1/block5e_project_bn_1/batchnorm/sub", "shape": [1, 1, 1, 112], "dtype": "float32"}, {"name": "StatefulPartitionedCall/clean_plant_model_1/efficientnetv2-b0_1/block5d_expand_conv_1/convolution/Cast", "shape": [1, 1, 112, 672], "dtype": "float32"}, {"name": "StatefulPartitionedCall/clean_plant_model_1/efficientnetv2-b0_1/block5d_expand_bn_1/batchnorm/mul", "shape": [1, 1, 1, 672], "dtype": "float32"}, {"name": "StatefulPartitionedCall/clean_plant_model_1/efficientnetv2-b0_1/block5d_expand_bn_1/batchnorm/sub", "shape": [1, 1, 1, 672], "dtype": "float32"}, {"name": "StatefulPartitionedCall/clean_plant_model_1/efficientnetv2-b0_1/block5d_dwconv2_1/depthwise/Cast", "shape": [3, 3, 672, 1], "dtype": "float32"}, {"name": "StatefulPartitionedCall/clean_plant_model_1/efficientnetv2-b0_1/block5d_bn_1/batchnorm/mul", "shape": [1, 1, 1, 672], "dtype": "float32"}, {"name": "StatefulPartitionedCall/clean_plant_model_1/efficientnetv2-b0_1/block5d_bn_1/batchnorm/sub", "shape": [1, 1, 1, 672], "dtype": "float32"}, {"name": "StatefulPartitionedCall/clean_plant_model_1/efficientnetv2-b0_1/block5d_se_squeeze_1/Mean/reduction_indices", "shape": [2], "dtype": "int32"}, {"name": "StatefulPartitionedCall/clean_plant_model_1/efficientnetv2-b0_1/block5d_se_reshape_1/strided_slice/stack", "shape": [1], "dtype": "int32"}, {"name": "StatefulPartitionedCall/clean_plant_model_1/efficientnetv2-b0_1/block5d_se_reshape_1/strided_slice/stack_1", "shape": [1], "dtype": "int32"}, {"name": "StatefulPartitionedCall/clean_plant_model_1/efficientnetv2-b0_1/block5d_se_reshape_1/strided_slice/stack_2", "shape": [1], "dtype": "int32"}, {"name": "StatefulPartitionedCall/clean_plant_model_1/efficientnetv2-b0_1/block5d_se_reshape_1/Reshape/shape/1", "shape": [], "dtype": "int32"}, {"name": "StatefulPartitionedCall/clean_plant_model_1/efficientnetv2-b0_1/block5d_se_reshape_1/Reshape/shape/2", "shape": [], "dtype": "int32"}, {"name": "StatefulPartitionedCall/clean_plant_model_1/efficientnetv2-b0_1/block5d_se_reshape_1/Reshape/shape/3", "shape": [], "dtype": "int32"}, {"name": "StatefulPartitionedCall/clean_plant_model_1/efficientnetv2-b0_1/block5d_se_reduce_1/convolution/Cast", "shape": [1, 1, 672, 28], "dtype": "float32"}, {"name": "StatefulPartitionedCall/clean_plant_model_1/efficientnetv2-b0_1/block5d_se_reduce_1/Squeeze", "shape": [28], "dtype": "float32"}, {"name": "StatefulPartitionedCall/clean_plant_model_1/efficientnetv2-b0_1/block5d_se_expand_1/convolution/Cast", "shape": [1, 1, 28, 672], "dtype": "float32"}, {"name": "StatefulPartitionedCall/clean_plant_model_1/efficientnetv2-b0_1/block5d_se_expand_1/Squeeze", "shape": [672], "dtype": "float32"}, {"name": "StatefulPartitionedCall/clean_plant_model_1/efficientnetv2-b0_1/block5d_project_conv_1/convolution/Cast", "shape": [1, 1, 672, 112], "dtype": "float32"}, {"name": "StatefulPartitionedCall/clean_plant_model_1/efficientnetv2-b0_1/block5d_project_bn_1/batchnorm/mul", "shape": [1, 1, 1, 112], "dtype": "float32"}, {"name": "StatefulPartitionedCall/clean_plant_model_1/efficientnetv2-b0_1/block5d_project_bn_1/batchnorm/sub", "shape": [1, 1, 1, 112], "dtype": "float32"}, {"name": "StatefulPartitionedCall/clean_plant_model_1/efficientnetv2-b0_1/block5c_expand_conv_1/convolution/Cast", "shape": [1, 1, 112, 672], "dtype": "float32"}, {"name": "StatefulPartitionedCall/clean_plant_model_1/efficientnetv2-b0_1/block5c_expand_bn_1/batchnorm/mul", "shape": [1, 1, 1, 672], "dtype": "float32"}, {"name": "StatefulPartitionedCall/clean_plant_model_1/efficientnetv2-b0_1/block5c_expand_bn_1/batchnorm/sub", "shape": [1, 1, 1, 672], "dtype": "float32"}, {"name": "StatefulPartitionedCall/clean_plant_model_1/efficientnetv2-b0_1/block5c_dwconv2_1/depthwise/Cast", "shape": [3, 3, 672, 1], "dtype": "float32"}, {"name": "StatefulPartitionedCall/clean_plant_model_1/efficientnetv2-b0_1/block5c_bn_1/batchnorm/mul", "shape": [1, 1, 1, 672], "dtype": "float32"}, {"name": "StatefulPartitionedCall/clean_plant_model_1/efficientnetv2-b0_1/block5c_bn_1/batchnorm/sub", "shape": [1, 1, 1, 672], "dtype": "float32"}, {"name": "StatefulPartitionedCall/clean_plant_model_1/efficientnetv2-b0_1/block5c_se_squeeze_1/Mean/reduction_indices", "shape": [2], "dtype": "int32"}, {"name": "StatefulPartitionedCall/clean_plant_model_1/efficientnetv2-b0_1/block5c_se_reshape_1/strided_slice/stack", "shape": [1], "dtype": "int32"}, {"name": "StatefulPartitionedCall/clean_plant_model_1/efficientnetv2-b0_1/block5c_se_reshape_1/strided_slice/stack_1", "shape": [1], "dtype": "int32"}, {"name": "StatefulPartitionedCall/clean_plant_model_1/efficientnetv2-b0_1/block5c_se_reshape_1/strided_slice/stack_2", "shape": [1], "dtype": "int32"}, {"name": "StatefulPartitionedCall/clean_plant_model_1/efficientnetv2-b0_1/block5c_se_reshape_1/Reshape/shape/1", "shape": [], "dtype": "int32"}, {"name": "StatefulPartitionedCall/clean_plant_model_1/efficientnetv2-b0_1/block5c_se_reshape_1/Reshape/shape/2", "shape": [], "dtype": "int32"}, {"name": "StatefulPartitionedCall/clean_plant_model_1/efficientnetv2-b0_1/block5c_se_reshape_1/Reshape/shape/3", "shape": [], "dtype": "int32"}, {"name": "StatefulPartitionedCall/clean_plant_model_1/efficientnetv2-b0_1/block5c_se_reduce_1/convolution/Cast", "shape": [1, 1, 672, 28], "dtype": "float32"}, {"name": "StatefulPartitionedCall/clean_plant_model_1/efficientnetv2-b0_1/block5c_se_reduce_1/Squeeze", "shape": [28], "dtype": "float32"}, {"name": "StatefulPartitionedCall/clean_plant_model_1/efficientnetv2-b0_1/block5c_se_expand_1/convolution/Cast", "shape": [1, 1, 28, 672], "dtype": "float32"}, {"name": "StatefulPartitionedCall/clean_plant_model_1/efficientnetv2-b0_1/block5c_se_expand_1/Squeeze", "shape": [672], "dtype": "float32"}, {"name": "StatefulPartitionedCall/clean_plant_model_1/efficientnetv2-b0_1/block5c_project_conv_1/convolution/Cast", "shape": [1, 1, 672, 112], "dtype": "float32"}, {"name": "StatefulPartitionedCall/clean_plant_model_1/efficientnetv2-b0_1/block5c_project_bn_1/batchnorm/mul", "shape": [1, 1, 1, 112], "dtype": "float32"}, {"name": "StatefulPartitionedCall/clean_plant_model_1/efficientnetv2-b0_1/block5c_project_bn_1/batchnorm/sub", "shape": [1, 1, 1, 112], "dtype": "float32"}, {"name": "StatefulPartitionedCall/clean_plant_model_1/efficientnetv2-b0_1/block5b_expand_conv_1/convolution/Cast", "shape": [1, 1, 112, 672], "dtype": "float32"}, {"name": "StatefulPartitionedCall/clean_plant_model_1/efficientnetv2-b0_1/block5b_expand_bn_1/batchnorm/mul", "shape": [1, 1, 1, 672], "dtype": "float32"}, {"name": "StatefulPartitionedCall/clean_plant_model_1/efficientnetv2-b0_1/block5b_expand_bn_1/batchnorm/sub", "shape": [1, 1, 1, 672], "dtype": "float32"}, {"name": "StatefulPartitionedCall/clean_plant_model_1/efficientnetv2-b0_1/block5b_dwconv2_1/depthwise/Cast", "shape": [3, 3, 672, 1], "dtype": "float32"}, {"name": "StatefulPartitionedCall/clean_plant_model_1/efficientnetv2-b0_1/block5b_bn_1/batchnorm/mul", "shape": [1, 1, 1, 672], "dtype": "float32"}, {"name": "StatefulPartitionedCall/clean_plant_model_1/efficientnetv2-b0_1/block5b_bn_1/batchnorm/sub", "shape": [1, 1, 1, 672], "dtype": "float32"}, {"name": "StatefulPartitionedCall/clean_plant_model_1/efficientnetv2-b0_1/block5b_se_squeeze_1/Mean/reduction_indices", "shape": [2], "dtype": "int32"}, {"name": "StatefulPartitionedCall/clean_plant_model_1/efficientnetv2-b0_1/block5b_se_reshape_1/strided_slice/stack", "shape": [1], "dtype": "int32"}, {"name": "StatefulPartitionedCall/clean_plant_model_1/efficientnetv2-b0_1/block5b_se_reshape_1/strided_slice/stack_1", "shape": [1], "dtype": "int32"}, {"name": "StatefulPartitionedCall/clean_plant_model_1/efficientnetv2-b0_1/block5b_se_reshape_1/strided_slice/stack_2", "shape": [1], "dtype": "int32"}, {"name": "StatefulPartitionedCall/clean_plant_model_1/efficientnetv2-b0_1/block5b_se_reshape_1/Reshape/shape/1", "shape": [], "dtype": "int32"}, {"name": "StatefulPartitionedCall/clean_plant_model_1/efficientnetv2-b0_1/block5b_se_reshape_1/Reshape/shape/2", "shape": [], "dtype": "int32"}, {"name": "StatefulPartitionedCall/clean_plant_model_1/efficientnetv2-b0_1/block5b_se_reshape_1/Reshape/shape/3", "shape": [], "dtype": "int32"}, {"name": "StatefulPartitionedCall/clean_plant_model_1/efficientnetv2-b0_1/block5b_se_reduce_1/convolution/Cast", "shape": [1, 1, 672, 28], "dtype": "float32"}, {"name": "StatefulPartitionedCall/clean_plant_model_1/efficientnetv2-b0_1/block5b_se_reduce_1/Squeeze", "shape": [28], "dtype": "float32"}, {"name": "StatefulPartitionedCall/clean_plant_model_1/efficientnetv2-b0_1/block5b_se_expand_1/convolution/Cast", "shape": [1, 1, 28, 672], "dtype": "float32"}, {"name": "StatefulPartitionedCall/clean_plant_model_1/efficientnetv2-b0_1/block5b_se_expand_1/Squeeze", "shape": [672], "dtype": "float32"}, {"name": "StatefulPartitionedCall/clean_plant_model_1/efficientnetv2-b0_1/block5b_project_conv_1/convolution/Cast", "shape": [1, 1, 672, 112], "dtype": "float32"}, {"name": "StatefulPartitionedCall/clean_plant_model_1/efficientnetv2-b0_1/block5b_project_bn_1/batchnorm/mul", "shape": [1, 1, 1, 112], "dtype": "float32"}, {"name": "StatefulPartitionedCall/clean_plant_model_1/efficientnetv2-b0_1/block5b_project_bn_1/batchnorm/sub", "shape": [1, 1, 1, 112], "dtype": "float32"}, {"name": "StatefulPartitionedCall/clean_plant_model_1/efficientnetv2-b0_1/block4c_expand_conv_1/convolution/Cast", "shape": [1, 1, 96, 384], "dtype": "float32"}, {"name": "StatefulPartitionedCall/clean_plant_model_1/efficientnetv2-b0_1/block4c_expand_bn_1/batchnorm/mul", "shape": [1, 1, 1, 384], "dtype": "float32"}, {"name": "StatefulPartitionedCall/clean_plant_model_1/efficientnetv2-b0_1/block4c_expand_bn_1/batchnorm/sub", "shape": [1, 1, 1, 384], "dtype": "float32"}, {"name": "StatefulPartitionedCall/clean_plant_model_1/efficientnetv2-b0_1/block4c_dwconv2_1/depthwise/Cast", "shape": [3, 3, 384, 1], "dtype": "float32"}, {"name": "StatefulPartitionedCall/clean_plant_model_1/efficientnetv2-b0_1/block4c_bn_1/batchnorm/mul", "shape": [1, 1, 1, 384], "dtype": "float32"}, {"name": "StatefulPartitionedCall/clean_plant_model_1/efficientnetv2-b0_1/block4c_bn_1/batchnorm/sub", "shape": [1, 1, 1, 384], "dtype": "float32"}, {"name": "StatefulPartitionedCall/clean_plant_model_1/efficientnetv2-b0_1/block4c_se_squeeze_1/Mean/reduction_indices", "shape": [2], "dtype": "int32"}, {"name": "StatefulPartitionedCall/clean_plant_model_1/efficientnetv2-b0_1/block4c_se_reshape_1/strided_slice/stack", "shape": [1], "dtype": "int32"}, {"name": "StatefulPartitionedCall/clean_plant_model_1/efficientnetv2-b0_1/block4c_se_reshape_1/strided_slice/stack_1", "shape": [1], "dtype": "int32"}, {"name": "StatefulPartitionedCall/clean_plant_model_1/efficientnetv2-b0_1/block4c_se_reshape_1/strided_slice/stack_2", "shape": [1], "dtype": "int32"}, {"name": "StatefulPartitionedCall/clean_plant_model_1/efficientnetv2-b0_1/block4c_se_reshape_1/Reshape/shape/1", "shape": [], "dtype": "int32"}, {"name": "StatefulPartitionedCall/clean_plant_model_1/efficientnetv2-b0_1/block4c_se_reshape_1/Reshape/shape/2", "shape": [], "dtype": "int32"}, {"name": "StatefulPartitionedCall/clean_plant_model_1/efficientnetv2-b0_1/block4c_se_reshape_1/Reshape/shape/3", "shape": [], "dtype": "int32"}, {"name": "StatefulPartitionedCall/clean_plant_model_1/efficientnetv2-b0_1/block4c_se_reduce_1/convolution/Cast", "shape": [1, 1, 384, 24], "dtype": "float32"}, {"name": "StatefulPartitionedCall/clean_plant_model_1/efficientnetv2-b0_1/block4c_se_reduce_1/Squeeze", "shape": [24], "dtype": "float32"}, {"name": "StatefulPartitionedCall/clean_plant_model_1/efficientnetv2-b0_1/block4c_se_expand_1/convolution/Cast", "shape": [1, 1, 24, 384], "dtype": "float32"}, {"name": "StatefulPartitionedCall/clean_plant_model_1/efficientnetv2-b0_1/block4c_se_expand_1/Squeeze", "shape": [384], "dtype": "float32"}, {"name": "StatefulPartitionedCall/clean_plant_model_1/efficientnetv2-b0_1/block4c_project_conv_1/convolution/Cast", "shape": [1, 1, 384, 96], "dtype": "float32"}, {"name": "StatefulPartitionedCall/clean_plant_model_1/efficientnetv2-b0_1/block4c_project_bn_1/batchnorm/mul", "shape": [1, 1, 1, 96], "dtype": "float32"}, {"name": "StatefulPartitionedCall/clean_plant_model_1/efficientnetv2-b0_1/block4c_project_bn_1/batchnorm/sub", "shape": [1, 1, 1, 96], "dtype": "float32"}, {"name": "StatefulPartitionedCall/clean_plant_model_1/efficientnetv2-b0_1/block4b_expand_conv_1/convolution/Cast", "shape": [1, 1, 96, 384], "dtype": "float32"}, {"name": "StatefulPartitionedCall/clean_plant_model_1/efficientnetv2-b0_1/block4b_expand_bn_1/batchnorm/mul", "shape": [1, 1, 1, 384], "dtype": "float32"}, {"name": "StatefulPartitionedCall/clean_plant_model_1/efficientnetv2-b0_1/block4b_expand_bn_1/batchnorm/sub", "shape": [1, 1, 1, 384], "dtype": "float32"}, {"name": "StatefulPartitionedCall/clean_plant_model_1/efficientnetv2-b0_1/block4b_dwconv2_1/depthwise/Cast", "shape": [3, 3, 384, 1], "dtype": "float32"}, {"name": "StatefulPartitionedCall/clean_plant_model_1/efficientnetv2-b0_1/block4b_bn_1/batchnorm/mul", "shape": [1, 1, 1, 384], "dtype": "float32"}, {"name": "StatefulPartitionedCall/clean_plant_model_1/efficientnetv2-b0_1/block4b_bn_1/batchnorm/sub", "shape": [1, 1, 1, 384], "dtype": "float32"}, {"name": "StatefulPartitionedCall/clean_plant_model_1/efficientnetv2-b0_1/block4b_se_squeeze_1/Mean/reduction_indices", "shape": [2], "dtype": "int32"}, {"name": "StatefulPartitionedCall/clean_plant_model_1/efficientnetv2-b0_1/block4b_se_reshape_1/strided_slice/stack", "shape": [1], "dtype": "int32"}, {"name": "StatefulPartitionedCall/clean_plant_model_1/efficientnetv2-b0_1/block4b_se_reshape_1/strided_slice/stack_1", "shape": [1], "dtype": "int32"}, {"name": "StatefulPartitionedCall/clean_plant_model_1/efficientnetv2-b0_1/block4b_se_reshape_1/strided_slice/stack_2", "shape": [1], "dtype": "int32"}, {"name": "StatefulPartitionedCall/clean_plant_model_1/efficientnetv2-b0_1/block4b_se_reshape_1/Reshape/shape/1", "shape": [], "dtype": "int32"}, {"name": "StatefulPartitionedCall/clean_plant_model_1/efficientnetv2-b0_1/block4b_se_reshape_1/Reshape/shape/2", "shape": [], "dtype": "int32"}, {"name": "StatefulPartitionedCall/clean_plant_model_1/efficientnetv2-b0_1/block4b_se_reshape_1/Reshape/shape/3", "shape": [], "dtype": "int32"}, {"name": "StatefulPartitionedCall/clean_plant_model_1/efficientnetv2-b0_1/block4b_se_reduce_1/convolution/Cast", "shape": [1, 1, 384, 24], "dtype": "float32"}, {"name": "StatefulPartitionedCall/clean_plant_model_1/efficientnetv2-b0_1/block4b_se_reduce_1/Squeeze", "shape": [24], "dtype": "float32"}, {"name": "StatefulPartitionedCall/clean_plant_model_1/efficientnetv2-b0_1/block4b_se_expand_1/convolution/Cast", "shape": [1, 1, 24, 384], "dtype": "float32"}, {"name": "StatefulPartitionedCall/clean_plant_model_1/efficientnetv2-b0_1/block4b_se_expand_1/Squeeze", "shape": [384], "dtype": "float32"}, {"name": "StatefulPartitionedCall/clean_plant_model_1/efficientnetv2-b0_1/block4b_project_conv_1/convolution/Cast", "shape": [1, 1, 384, 96], "dtype": "float32"}, {"name": "StatefulPartitionedCall/clean_plant_model_1/efficientnetv2-b0_1/block4b_project_bn_1/batchnorm/mul", "shape": [1, 1, 1, 96], "dtype": "float32"}, {"name": "StatefulPartitionedCall/clean_plant_model_1/efficientnetv2-b0_1/block4b_project_bn_1/batchnorm/sub", "shape": [1, 1, 1, 96], "dtype": "float32"}, {"name": "StatefulPartitionedCall/clean_plant_model_1/efficientnetv2-b0_1/block3b_expand_conv_1/convolution/Cast", "shape": [3, 3, 48, 192], "dtype": "float32"}, {"name": "StatefulPartitionedCall/clean_plant_model_1/efficientnetv2-b0_1/block3b_expand_bn_1/batchnorm/mul", "shape": [1, 1, 1, 192], "dtype": "float32"}, {"name": "StatefulPartitionedCall/clean_plant_model_1/efficientnetv2-b0_1/block3b_expand_bn_1/batchnorm/sub", "shape": [1, 1, 1, 192], "dtype": "float32"}, {"name": "StatefulPartitionedCall/clean_plant_model_1/efficientnetv2-b0_1/block3b_project_conv_1/convolution/Cast", "shape": [1, 1, 192, 48], "dtype": "float32"}, {"name": "StatefulPartitionedCall/clean_plant_model_1/efficientnetv2-b0_1/block3b_project_bn_1/batchnorm/mul", "shape": [1, 1, 1, 48], "dtype": "float32"}, {"name": "StatefulPartitionedCall/clean_plant_model_1/efficientnetv2-b0_1/block3b_project_bn_1/batchnorm/sub", "shape": [1, 1, 1, 48], "dtype": "float32"}, {"name": "StatefulPartitionedCall/clean_plant_model_1/efficientnetv2-b0_1/block2b_expand_conv_1/convolution/Cast", "shape": [3, 3, 32, 128], "dtype": "float32"}, {"name": "StatefulPartitionedCall/clean_plant_model_1/efficientnetv2-b0_1/block2b_expand_bn_1/batchnorm/mul", "shape": [1, 1, 1, 128], "dtype": "float32"}, {"name": "StatefulPartitionedCall/clean_plant_model_1/efficientnetv2-b0_1/block2b_expand_bn_1/batchnorm/sub", "shape": [1, 1, 1, 128], "dtype": "float32"}, {"name": "StatefulPartitionedCall/clean_plant_model_1/efficientnetv2-b0_1/block2b_project_conv_1/convolution/Cast", "shape": [1, 1, 128, 32], "dtype": "float32"}, {"name": "StatefulPartitionedCall/clean_plant_model_1/efficientnetv2-b0_1/block2b_project_bn_1/batchnorm/mul", "shape": [1, 1, 1, 32], "dtype": "float32"}, {"name": "StatefulPartitionedCall/clean_plant_model_1/efficientnetv2-b0_1/block2b_project_bn_1/batchnorm/sub", "shape": [1, 1, 1, 32], "dtype": "float32"}, {"name": "StatefulPartitionedCall/clean_plant_model_1/efficientnetv2-b0_1/rescaling_1/Cast", "shape": [], "dtype": "float32"}, {"name": "StatefulPartitionedCall/clean_plant_model_1/efficientnetv2-b0_1/rescaling_1/Cast_1", "shape": [], "dtype": "float32"}, {"name": "unknown", "shape": [1, 1, 1, 3], "dtype": "float32"}, {"name": "ConstantFolding/StatefulPartitionedCall/clean_plant_model_1/efficientnetv2-b0_1/normalization_1/truediv_recip", "shape": [1, 1, 1, 3], "dtype": "float32"}, {"name": "StatefulPartitionedCall/clean_plant_model_1/efficientnetv2-b0_1/stem_conv_1/convolution/Cast", "shape": [3, 3, 3, 32], "dtype": "float32"}, {"name": "StatefulPartitionedCall/clean_plant_model_1/efficientnetv2-b0_1/stem_bn_1/batchnorm/mul", "shape": [1, 1, 1, 32], "dtype": "float32"}, {"name": "StatefulPartitionedCall/clean_plant_model_1/efficientnetv2-b0_1/stem_bn_1/batchnorm/sub", "shape": [1, 1, 1, 32], "dtype": "float32"}, {"name": "StatefulPartitionedCall/clean_plant_model_1/efficientnetv2-b0_1/block1a_project_conv_1/convolution/Cast", "shape": [3, 3, 32, 16], "dtype": "float32"}, {"name": "StatefulPartitionedCall/clean_plant_model_1/efficientnetv2-b0_1/block1a_project_bn_1/batchnorm/mul", "shape": [1, 1, 1, 16], "dtype": "float32"}, {"name": "StatefulPartitionedCall/clean_plant_model_1/efficientnetv2-b0_1/block1a_project_bn_1/batchnorm/sub", "shape": [1, 1, 1, 16], "dtype": "float32"}, {"name": "StatefulPartitionedCall/clean_plant_model_1/efficientnetv2-b0_1/block2a_expand_conv_1/convolution/Cast", "shape": [3, 3, 16, 64], "dtype": "float32"}, {"name": "StatefulPartitionedCall/clean_plant_model_1/efficientnetv2-b0_1/block2a_expand_bn_1/batchnorm/mul", "shape": [1, 1, 1, 64], "dtype": "float32"}, {"name": "StatefulPartitionedCall/clean_plant_model_1/efficientnetv2-b0_1/block2a_expand_bn_1/batchnorm/sub", "shape": [1, 1, 1, 64], "dtype": "float32"}, {"name": "StatefulPartitionedCall/clean_plant_model_1/efficientnetv2-b0_1/block2a_project_conv_1/convolution/Cast", "shape": [1, 1, 64, 32], "dtype": "float32"}, {"name": "StatefulPartitionedCall/clean_plant_model_1/efficientnetv2-b0_1/block2a_project_bn_1/batchnorm/mul", "shape": [1, 1, 1, 32], "dtype": "float32"}, {"name": "StatefulPartitionedCall/clean_plant_model_1/efficientnetv2-b0_1/block2a_project_bn_1/batchnorm/sub", "shape": [1, 1, 1, 32], "dtype": "float32"}, {"name": "StatefulPartitionedCall/clean_plant_model_1/efficientnetv2-b0_1/block3a_expand_conv_1/convolution/Cast", "shape": [3, 3, 32, 128], "dtype": "float32"}, {"name": "StatefulPartitionedCall/clean_plant_model_1/efficientnetv2-b0_1/block3a_expand_bn_1/batchnorm/mul", "shape": [1, 1, 1, 128], "dtype": "float32"}, {"name": "StatefulPartitionedCall/clean_plant_model_1/efficientnetv2-b0_1/block3a_expand_bn_1/batchnorm/sub", "shape": [1, 1, 1, 128], "dtype": "float32"}, {"name": "StatefulPartitionedCall/clean_plant_model_1/efficientnetv2-b0_1/block3a_project_conv_1/convolution/Cast", "shape": [1, 1, 128, 48], "dtype": "float32"}, {"name": "StatefulPartitionedCall/clean_plant_model_1/efficientnetv2-b0_1/block3a_project_bn_1/batchnorm/mul", "shape": [1, 1, 1, 48], "dtype": "float32"}, {"name": "StatefulPartitionedCall/clean_plant_model_1/efficientnetv2-b0_1/block3a_project_bn_1/batchnorm/sub", "shape": [1, 1, 1, 48], "dtype": "float32"}, {"name": "StatefulPartitionedCall/clean_plant_model_1/efficientnetv2-b0_1/block4a_expand_conv_1/convolution/Cast", "shape": [1, 1, 48, 192], "dtype": "float32"}, {"name": "StatefulPartitionedCall/clean_plant_model_1/efficientnetv2-b0_1/block4a_expand_bn_1/batchnorm/mul", "shape": [1, 1, 1, 192], "dtype": "float32"}, {"name": "StatefulPartitionedCall/clean_plant_model_1/efficientnetv2-b0_1/block4a_expand_bn_1/batchnorm/sub", "shape": [1, 1, 1, 192], "dtype": "float32"}, {"name": "StatefulPartitionedCall/clean_plant_model_1/efficientnetv2-b0_1/block4a_dwconv2_1/depthwise/Cast", "shape": [3, 3, 192, 1], "dtype": "float32"}, {"name": "StatefulPartitionedCall/clean_plant_model_1/efficientnetv2-b0_1/block4a_bn_1/batchnorm/mul", "shape": [1, 1, 1, 192], "dtype": "float32"}, {"name": "StatefulPartitionedCall/clean_plant_model_1/efficientnetv2-b0_1/block4a_bn_1/batchnorm/sub", "shape": [1, 1, 1, 192], "dtype": "float32"}, {"name": "StatefulPartitionedCall/clean_plant_model_1/efficientnetv2-b0_1/block4a_se_squeeze_1/Mean/reduction_indices", "shape": [2], "dtype": "int32"}, {"name": "StatefulPartitionedCall/clean_plant_model_1/efficientnetv2-b0_1/block4a_se_reshape_1/strided_slice/stack", "shape": [1], "dtype": "int32"}, {"name": "StatefulPartitionedCall/clean_plant_model_1/efficientnetv2-b0_1/block4a_se_reshape_1/strided_slice/stack_1", "shape": [1], "dtype": "int32"}, {"name": "StatefulPartitionedCall/clean_plant_model_1/efficientnetv2-b0_1/block4a_se_reshape_1/strided_slice/stack_2", "shape": [1], "dtype": "int32"}, {"name": "StatefulPartitionedCall/clean_plant_model_1/efficientnetv2-b0_1/block4a_se_reshape_1/Reshape/shape/1", "shape": [], "dtype": "int32"}, {"name": "StatefulPartitionedCall/clean_plant_model_1/efficientnetv2-b0_1/block4a_se_reshape_1/Reshape/shape/2", "shape": [], "dtype": "int32"}, {"name": "StatefulPartitionedCall/clean_plant_model_1/efficientnetv2-b0_1/block4a_se_reshape_1/Reshape/shape/3", "shape": [], "dtype": "int32"}, {"name": "StatefulPartitionedCall/clean_plant_model_1/efficientnetv2-b0_1/block4a_se_reduce_1/convolution/Cast", "shape": [1, 1, 192, 12], "dtype": "float32"}, {"name": "StatefulPartitionedCall/clean_plant_model_1/efficientnetv2-b0_1/block4a_se_reduce_1/Squeeze", "shape": [12], "dtype": "float32"}, {"name": "StatefulPartitionedCall/clean_plant_model_1/efficientnetv2-b0_1/block4a_se_expand_1/convolution/Cast", "shape": [1, 1, 12, 192], "dtype": "float32"}, {"name": "StatefulPartitionedCall/clean_plant_model_1/efficientnetv2-b0_1/block4a_se_expand_1/Squeeze", "shape": [192], "dtype": "float32"}, {"name": "StatefulPartitionedCall/clean_plant_model_1/efficientnetv2-b0_1/block4a_project_conv_1/convolution/Cast", "shape": [1, 1, 192, 96], "dtype": "float32"}, {"name": "StatefulPartitionedCall/clean_plant_model_1/efficientnetv2-b0_1/block4a_project_bn_1/batchnorm/mul", "shape": [1, 1, 1, 96], "dtype": "float32"}, {"name": "StatefulPartitionedCall/clean_plant_model_1/efficientnetv2-b0_1/block4a_project_bn_1/batchnorm/sub", "shape": [1, 1, 1, 96], "dtype": "float32"}, {"name": "StatefulPartitionedCall/clean_plant_model_1/efficientnetv2-b0_1/block5a_expand_conv_1/convolution/Cast", "shape": [1, 1, 96, 576], "dtype": "float32"}, {"name": "StatefulPartitionedCall/clean_plant_model_1/efficientnetv2-b0_1/block5a_expand_bn_1/batchnorm/mul", "shape": [1, 1, 1, 576], "dtype": "float32"}, {"name": "StatefulPartitionedCall/clean_plant_model_1/efficientnetv2-b0_1/block5a_expand_bn_1/batchnorm/sub", "shape": [1, 1, 1, 576], "dtype": "float32"}, {"name": "StatefulPartitionedCall/clean_plant_model_1/efficientnetv2-b0_1/block5a_dwconv2_1/depthwise/Cast", "shape": [3, 3, 576, 1], "dtype": "float32"}, {"name": "StatefulPartitionedCall/clean_plant_model_1/efficientnetv2-b0_1/block5a_bn_1/batchnorm/mul", "shape": [1, 1, 1, 576], "dtype": "float32"}, {"name": "StatefulPartitionedCall/clean_plant_model_1/efficientnetv2-b0_1/block5a_bn_1/batchnorm/sub", "shape": [1, 1, 1, 576], "dtype": "float32"}, {"name": "StatefulPartitionedCall/clean_plant_model_1/efficientnetv2-b0_1/block5a_se_squeeze_1/Mean/reduction_indices", "shape": [2], "dtype": "int32"}, {"name": "StatefulPartitionedCall/clean_plant_model_1/efficientnetv2-b0_1/block5a_se_reshape_1/strided_slice/stack", "shape": [1], "dtype": "int32"}, {"name": "StatefulPartitionedCall/clean_plant_model_1/efficientnetv2-b0_1/block5a_se_reshape_1/strided_slice/stack_1", "shape": [1], "dtype": "int32"}, {"name": "StatefulPartitionedCall/clean_plant_model_1/efficientnetv2-b0_1/block5a_se_reshape_1/strided_slice/stack_2", "shape": [1], "dtype": "int32"}, {"name": "StatefulPartitionedCall/clean_plant_model_1/efficientnetv2-b0_1/block5a_se_reshape_1/Reshape/shape/1", "shape": [], "dtype": "int32"}, {"name": "StatefulPartitionedCall/clean_plant_model_1/efficientnetv2-b0_1/block5a_se_reshape_1/Reshape/shape/2", "shape": [], "dtype": "int32"}, {"name": "StatefulPartitionedCall/clean_plant_model_1/efficientnetv2-b0_1/block5a_se_reshape_1/Reshape/shape/3", "shape": [], "dtype": "int32"}, {"name": "StatefulPartitionedCall/clean_plant_model_1/efficientnetv2-b0_1/block5a_se_reduce_1/convolution/Cast", "shape": [1, 1, 576, 24], "dtype": "float32"}, {"name": "StatefulPartitionedCall/clean_plant_model_1/efficientnetv2-b0_1/block5a_se_reduce_1/Squeeze", "shape": [24], "dtype": "float32"}, {"name": "StatefulPartitionedCall/clean_plant_model_1/efficientnetv2-b0_1/block5a_se_expand_1/convolution/Cast", "shape": [1, 1, 24, 576], "dtype": "float32"}, {"name": "StatefulPartitionedCall/clean_plant_model_1/efficientnetv2-b0_1/block5a_se_expand_1/Squeeze", "shape": [576], "dtype": "float32"}, {"name": "StatefulPartitionedCall/clean_plant_model_1/efficientnetv2-b0_1/block5a_project_conv_1/convolution/Cast", "shape": [1, 1, 576, 112], "dtype": "float32"}, {"name": "StatefulPartitionedCall/clean_plant_model_1/efficientnetv2-b0_1/block5a_project_bn_1/batchnorm/mul", "shape": [1, 1, 1, 112], "dtype": "float32"}, {"name": "StatefulPartitionedCall/clean_plant_model_1/efficientnetv2-b0_1/block5a_project_bn_1/batchnorm/sub", "shape": [1, 1, 1, 112], "dtype": "float32"}, {"name": "StatefulPartitionedCall/clean_plant_model_1/efficientnetv2-b0_1/block6a_expand_conv_1/convolution/Cast", "shape": [1, 1, 112, 672], "dtype": "float32"}, {"name": "StatefulPartitionedCall/clean_plant_model_1/efficientnetv2-b0_1/block6a_expand_bn_1/batchnorm/mul", "shape": [1, 1, 1, 672], "dtype": "float32"}, {"name": "StatefulPartitionedCall/clean_plant_model_1/efficientnetv2-b0_1/block6a_expand_bn_1/batchnorm/sub", "shape": [1, 1, 1, 672], "dtype": "float32"}, {"name": "StatefulPartitionedCall/clean_plant_model_1/efficientnetv2-b0_1/block6a_dwconv2_1/depthwise/Cast", "shape": [3, 3, 672, 1], "dtype": "float32"}, {"name": "StatefulPartitionedCall/clean_plant_model_1/efficientnetv2-b0_1/block6a_bn_1/batchnorm/mul", "shape": [1, 1, 1, 672], "dtype": "float32"}, {"name": "StatefulPartitionedCall/clean_plant_model_1/efficientnetv2-b0_1/block6a_bn_1/batchnorm/sub", "shape": [1, 1, 1, 672], "dtype": "float32"}, {"name": "StatefulPartitionedCall/clean_plant_model_1/efficientnetv2-b0_1/block6a_se_squeeze_1/Mean/reduction_indices", "shape": [2], "dtype": "int32"}, {"name": "StatefulPartitionedCall/clean_plant_model_1/efficientnetv2-b0_1/block6a_se_reshape_1/strided_slice/stack", "shape": [1], "dtype": "int32"}, {"name": "StatefulPartitionedCall/clean_plant_model_1/efficientnetv2-b0_1/block6a_se_reshape_1/strided_slice/stack_1", "shape": [1], "dtype": "int32"}, {"name": "StatefulPartitionedCall/clean_plant_model_1/efficientnetv2-b0_1/block6a_se_reshape_1/strided_slice/stack_2", "shape": [1], "dtype": "int32"}, {"name": "StatefulPartitionedCall/clean_plant_model_1/efficientnetv2-b0_1/block6a_se_reshape_1/Reshape/shape/1", "shape": [], "dtype": "int32"}, {"name": "StatefulPartitionedCall/clean_plant_model_1/efficientnetv2-b0_1/block6a_se_reshape_1/Reshape/shape/2", "shape": [], "dtype": "int32"}, {"name": "StatefulPartitionedCall/clean_plant_model_1/efficientnetv2-b0_1/block6a_se_reshape_1/Reshape/shape/3", "shape": [], "dtype": "int32"}, {"name": "StatefulPartitionedCall/clean_plant_model_1/efficientnetv2-b0_1/block6a_se_reduce_1/convolution/Cast", "shape": [1, 1, 672, 28], "dtype": "float32"}, {"name": "StatefulPartitionedCall/clean_plant_model_1/efficientnetv2-b0_1/block6a_se_reduce_1/Squeeze", "shape": [28], "dtype": "float32"}, {"name": "StatefulPartitionedCall/clean_plant_model_1/efficientnetv2-b0_1/block6a_se_expand_1/convolution/Cast", "shape": [1, 1, 28, 672], "dtype": "float32"}, {"name": "StatefulPartitionedCall/clean_plant_model_1/efficientnetv2-b0_1/block6a_se_expand_1/Squeeze", "shape": [672], "dtype": "float32"}, {"name": "StatefulPartitionedCall/clean_plant_model_1/efficientnetv2-b0_1/block6a_project_conv_1/convolution/Cast", "shape": [1, 1, 672, 192], "dtype": "float32"}, {"name": "StatefulPartitionedCall/clean_plant_model_1/efficientnetv2-b0_1/block6a_project_bn_1/batchnorm/mul", "shape": [1, 1, 1, 192], "dtype": "float32"}, {"name": "StatefulPartitionedCall/clean_plant_model_1/efficientnetv2-b0_1/block6a_project_bn_1/batchnorm/sub", "shape": [1, 1, 1, 192], "dtype": "float32"}, {"name": "StatefulPartitionedCall/clean_plant_model_1/efficientnetv2-b0_1/top_conv_1/convolution/Cast", "shape": [1, 1, 192, 1280], "dtype": "float32"}, {"name": "StatefulPartitionedCall/clean_plant_model_1/efficientnetv2-b0_1/top_bn_1/batchnorm/mul", "shape": [1, 1, 1, 1280], "dtype": "float32"}, {"name": "StatefulPartitionedCall/clean_plant_model_1/efficientnetv2-b0_1/top_bn_1/batchnorm/sub", "shape": [1, 1, 1, 1280], "dtype": "float32"}, {"name": "StatefulPartitionedCall/clean_plant_model_1/global_average_pooling2d_1/Mean/reduction_indices", "shape": [2], "dtype": "int32"}, {"name": "StatefulPartitionedCall/clean_plant_model_1/dense_1/Cast/ReadVariableOp", "shape": [1280, 86], "dtype": "float32"}, {"name": "StatefulPartitionedCall/clean_plant_model_1/dense_1/BiasAdd/ReadVariableOp", "shape": [86], "dtype": "float32"}]}]}